…
           'FG_FRACTION': 0.25,
           'FG_THRESH': 0.5,
           'IMS_PER_BATCH': 2,
           'MAX_SIZE': 2000,
           'SCALES': [688],
           'SNAPSHOT_INFIX': '',
           'SNAPSHOT_ITERS': 10000,
           'USE_FLIPPED': True,
           'USE_PREFETCH': False}}
WARNING: Logging before InitGoogleLogging() is written to STDERR
I1004 23:31:04.413184  3990 net.cpp:42] Initializing net from parameters: 
name: "CaffeNet"
input: "data"
input: "rois"
state {
  phase: TEST
}
input_shape {
  dim: 1
  dim: 3
  dim: 227
  dim: 227
}
input_shape {
  dim: 1
  dim: 5
}
layer {
  name: "conv1"
  type: "Convolution"
  bottom: "data"
  top: "conv1"
  param {
    lr_mult: 1
    decay_mult: 1
  }
  param {
    lr_mult: 2
    decay_mult: 0
  }
  convolution_param {
    num_output: 96
    pad: 5
    kernel_size: 11
    stride: 4
  }
}
layer {
  name: "relu1"
  type: "ReLU"
  bottom: "conv1"
  top: "conv1"
}
layer {
  name: "pool1"
  type: "Pooling"
  bottom: "conv1"
  top: "pool1"
  pooling_param {
    pool: MAX
    kernel_size: 3
    stride: 2
    pad: 1
  }
}
layer {
  name: "norm1"
  type: "LRN"
  bottom: "pool1"
  top: "norm1"
  lrn_param {
    local_size: 5
    alpha: 0.0001
    beta: 0.75
  }
}
layer {
  name: "conv2"
  type: "Convolution"
  bottom: "norm1"
  top: "conv2"
  param {
    lr_mult: 1
    decay_mult: 1
  }
  param {
    lr_mult: 2
    decay_mult: 0
  }
  convolution_param {
    num_output: 256
    pad: 2
    kernel_size: 5
    group: 2
  }
}
layer {
  name: "relu2"
  type: "ReLU"
  bottom: "conv2"
  top: "conv2"
}
layer {
  name: "pool2"
  type: "Pooling"
  bottom: "conv2"
  top: "pool2"
  pooling_param {
    pool: MAX
    kernel_size: 3
    stride: 2
    pad: 1
  }
}
layer {
  name: "norm2"
  type: "LRN"
  bottom: "pool2"
  top: "norm2"
  lrn_param {
    local_size: 5
    alpha: 0.0001
    beta: 0.75
  }
}
layer {
  name: "conv3"
  type: "Convolution"
  bottom: "norm2"
  top: "conv3"
  param {
    lr_mult: 1
    decay_mult: 1
  }
  param {
    lr_mult: 2
    decay_mult: 0
  }
  convolution_param {
    num_output: 384
    pad: 1
    kernel_size: 3
  }
}
layer {
  name: "relu3"
  type: "ReLU"
  bottom: "conv3"
  top: "conv3"
}
layer {
  name: "conv4"
  type: "Convolution"
  bottom: "conv3"
  top: "conv4"
  param {
    lr_mult: 1
    decay_mult: 1
  }
  param {
    lr_mult: 2
    decay_mult: 0
  }
  convolution_param {
    num_output: 384
    pad: 1
    kernel_size: 3
    group: 2
  }
}
layer {
  name: "relu4"
  type: "ReLU"
  bottom: "conv4"
  top: "conv4"
}
layer {
  name: "conv5"
  type: "Convolution"
  bottom: "conv4"
  top: "conv5"
  param {
    lr_mult: 1
    decay_mult: 1
  }
  param {
    lr_mult: 2
    decay_mult: 0
  }
  convolution_param {
    num_output: 256
    pad: 1
    kernel_size: 3
    group: 2
  }
}
layer {
  name: "relu5"
  type: "ReLU"
  bottom: "conv5"
  top: "conv5"
}
layer {
  name: "roi_pool5"
  type: "ROIPooling"
  bottom: "conv5"
  bottom: "rois"
  top: "pool5"
  roi_pooling_param {
    pooled_h: 6
    pooled_w: 6
    spatial_scale: 0.0625
  }
}
layer {
  name: "fc6"
  type: "InnerProduct"
  bottom: "pool5"
  top: "fc6"
  param {
    lr_mult: 1
    decay_mult: 1
  }
  param {
    lr_mult: 2
    decay_mult: 0
  }
  inner_product_param {
    num_output: 4096
  }
}
layer {
  name: "relu6"
  type: "ReLU"
  bottom: "fc6"
  top: "fc6"
}
layer {
  name: "drop6"
  type: "Dropout"
  bottom: "fc6"
  top: "fc6"
  dropout_param {
    dropout_ratio: 0.5
  }
}
layer {
  name: "fc7"
  type: "InnerProduct"
  bottom: "fc6"
  top: "fc7"
  param {
    lr_mult: 1
    decay_mult: 1
  }
  param {
    lr_mult: 2
    decay_mult: 0
  }
  inner_product_param {
    num_output: 4096
  }
}
layer {
  name: "relu7"
  type: "ReLU"
  bottom: "fc7"
  top: "fc7"
}
layer {
  name: "drop7"
  type: "Dropout"
  bottom: "fc7"
  top: "fc7"
  dropout_param {
    dropout_ratio: 0.5
  }
}
layer {
  name: "cls_score"
  type: "InnerProduct"
  bottom: "fc7"
  top: "cls_score_0"
  param {
    lr_mult: 1
    decay_mult: 1
  }
  param {
    lr_mult: 2
    decay_mult: 0
  }
  inner_product_param {
    num_output: 20
    weight_filler {
      type: "gaussian"
      std: 0.01
    }
    bias_filler {
      type: "constant"
      value: 0
    }
  }
}
layer {
  name: "bbox_pred"
  type: "InnerProduct"
  bottom: "fc7"
  top: "bbox_pred_0"
  param {
    lr_mult: 1
    decay_mult: 1
  }
  param {
    lr_mult: 2
    decay_mult: 0
  }
  inner_product_param {
    num_output: 80
    weight_filler {
      type: "gaussian"
      std: 0.001
    }
    bias_filler {
      type: "constant"
      value: 0
    }
  }
}
layer {
  name: "sum"
  type: "Eltwise"
  bottom: "bbox_pred_0"
  bottom: "bbox_pred_0"
  top: "bbox_pred"
  eltwise_param {
    operation: SUM
    coeff: 0.5
    coeff: 0.5
  }
}
layer {
  name: "sum"
  type: "Eltwise"
  bottom: "cls_score_0"
  bottom: "cls_score_0"
  top: "cls_score"
  eltwise_param {
    operation: SUM
    coeff: 0.5
    coeff: 0.5
  }
}
layer {
  name: "cls_prob"
  type: "Softmax"
  bottom: "cls_score"
  top: "cls_prob"
}
I1004 23:31:04.413348  3990 net.cpp:340] Input 0 -> data
I1004 23:31:04.413378  3990 net.cpp:340] Input 1 -> rois
I1004 23:31:04.413398  3990 layer_factory.hpp:74] Creating layer conv1
I1004 23:31:04.413414  3990 net.cpp:84] Creating Layer conv1
I1004 23:31:04.413421  3990 net.cpp:380] conv1 <- data
I1004 23:31:04.413432  3990 net.cpp:338] conv1 -> conv1
I1004 23:31:04.413444  3990 net.cpp:113] Setting up conv1
I1004 23:31:04.473599  3990 net.cpp:120] Top shape: 1 96 57 57 (311904)
I1004 23:31:04.473642  3990 layer_factory.hpp:74] Creating layer relu1
I1004 23:31:04.473660  3990 net.cpp:84] Creating Layer relu1
I1004 23:31:04.473667  3990 net.cpp:380] relu1 <- conv1
I1004 23:31:04.473677  3990 net.cpp:327] relu1 -> conv1 (in-place)
I1004 23:31:04.473688  3990 net.cpp:113] Setting up relu1
I1004 23:31:04.473752  3990 net.cpp:120] Top shape: 1 96 57 57 (311904)
I1004 23:31:04.473762  3990 layer_factory.hpp:74] Creating layer pool1
I1004 23:31:04.473769  3990 layer_factory.cpp:56] CUDNN does not support padding or multiple tops. Using Caffe's own pooling layer.
I1004 23:31:04.473779  3990 net.cpp:84] Creating Layer pool1
I1004 23:31:04.473786  3990 net.cpp:380] pool1 <- conv1
I1004 23:31:04.473795  3990 net.cpp:338] pool1 -> pool1
I1004 23:31:04.473805  3990 net.cpp:113] Setting up pool1
I1004 23:31:04.473821  3990 net.cpp:120] Top shape: 1 96 29 29 (80736)
I1004 23:31:04.473829  3990 layer_factory.hpp:74] Creating layer norm1
I1004 23:31:04.473839  3990 net.cpp:84] Creating Layer norm1
I1004 23:31:04.473846  3990 net.cpp:380] norm1 <- pool1
I1004 23:31:04.473855  3990 net.cpp:338] norm1 -> norm1
I1004 23:31:04.473865  3990 net.cpp:113] Setting up norm1
I1004 23:31:04.473878  3990 net.cpp:120] Top shape: 1 96 29 29 (80736)
I1004 23:31:04.473888  3990 layer_factory.hpp:74] Creating layer conv2
I1004 23:31:04.473901  3990 net.cpp:84] Creating Layer conv2
I1004 23:31:04.473907  3990 net.cpp:380] conv2 <- norm1
I1004 23:31:04.473917  3990 net.cpp:338] conv2 -> conv2
I1004 23:31:04.473927  3990 net.cpp:113] Setting up conv2
I1004 23:31:04.475164  3990 net.cpp:120] Top shape: 1 256 29 29 (215296)
I1004 23:31:04.475185  3990 layer_factory.hpp:74] Creating layer relu2
I1004 23:31:04.475199  3990 net.cpp:84] Creating Layer relu2
I1004 23:31:04.475206  3990 net.cpp:380] relu2 <- conv2
I1004 23:31:04.475215  3990 net.cpp:327] relu2 -> conv2 (in-place)
I1004 23:31:04.475224  3990 net.cpp:113] Setting up relu2
I1004 23:31:04.475281  3990 net.cpp:120] Top shape: 1 256 29 29 (215296)
I1004 23:31:04.475291  3990 layer_factory.hpp:74] Creating layer pool2
I1004 23:31:04.475297  3990 layer_factory.cpp:56] CUDNN does not support padding or multiple tops. Using Caffe's own pooling layer.
I1004 23:31:04.475306  3990 net.cpp:84] Creating Layer pool2
I1004 23:31:04.475312  3990 net.cpp:380] pool2 <- conv2
I1004 23:31:04.475322  3990 net.cpp:338] pool2 -> pool2
I1004 23:31:04.475330  3990 net.cpp:113] Setting up pool2
I1004 23:31:04.475342  3990 net.cpp:120] Top shape: 1 256 15 15 (57600)
I1004 23:31:04.475349  3990 layer_factory.hpp:74] Creating layer norm2
I1004 23:31:04.475358  3990 net.cpp:84] Creating Layer norm2
I1004 23:31:04.475365  3990 net.cpp:380] norm2 <- pool2
I1004 23:31:04.475373  3990 net.cpp:338] norm2 -> norm2
I1004 23:31:04.475383  3990 net.cpp:113] Setting up norm2
I1004 23:31:04.475392  3990 net.cpp:120] Top shape: 1 256 15 15 (57600)
I1004 23:31:04.475399  3990 layer_factory.hpp:74] Creating layer conv3
I1004 23:31:04.475409  3990 net.cpp:84] Creating Layer conv3
I1004 23:31:04.475416  3990 net.cpp:380] conv3 <- norm2
I1004 23:31:04.475425  3990 net.cpp:338] conv3 -> conv3
I1004 23:31:04.475435  3990 net.cpp:113] Setting up conv3
I1004 23:31:04.477268  3990 net.cpp:120] Top shape: 1 384 15 15 (86400)
I1004 23:31:04.477293  3990 layer_factory.hpp:74] Creating layer relu3
I1004 23:31:04.477308  3990 net.cpp:84] Creating Layer relu3
I1004 23:31:04.477314  3990 net.cpp:380] relu3 <- conv3
I1004 23:31:04.477324  3990 net.cpp:327] relu3 -> conv3 (in-place)
I1004 23:31:04.477334  3990 net.cpp:113] Setting up relu3
I1004 23:31:04.477390  3990 net.cpp:120] Top shape: 1 384 15 15 (86400)
I1004 23:31:04.477399  3990 layer_factory.hpp:74] Creating layer conv4
I1004 23:31:04.477409  3990 net.cpp:84] Creating Layer conv4
I1004 23:31:04.477416  3990 net.cpp:380] conv4 <- conv3
I1004 23:31:04.477426  3990 net.cpp:338] conv4 -> conv4
I1004 23:31:04.477435  3990 net.cpp:113] Setting up conv4
I1004 23:31:04.479472  3990 net.cpp:120] Top shape: 1 384 15 15 (86400)
I1004 23:31:04.479496  3990 layer_factory.hpp:74] Creating layer relu4
I1004 23:31:04.479509  3990 net.cpp:84] Creating Layer relu4
I1004 23:31:04.479516  3990 net.cpp:380] relu4 <- conv4
I1004 23:31:04.479526  3990 net.cpp:327] relu4 -> conv4 (in-place)
I1004 23:31:04.479534  3990 net.cpp:113] Setting up relu4
I1004 23:31:04.479737  3990 net.cpp:120] Top shape: 1 384 15 15 (86400)
I1004 23:31:04.479751  3990 layer_factory.hpp:74] Creating layer conv5
I1004 23:31:04.479765  3990 net.cpp:84] Creating Layer conv5
I1004 23:31:04.479773  3990 net.cpp:380] conv5 <- conv4
I1004 23:31:04.479784  3990 net.cpp:338] conv5 -> conv5
I1004 23:31:04.479795  3990 net.cpp:113] Setting up conv5
I1004 23:31:04.481385  3990 net.cpp:120] Top shape: 1 256 15 15 (57600)
I1004 23:31:04.481412  3990 layer_factory.hpp:74] Creating layer relu5
I1004 23:31:04.481423  3990 net.cpp:84] Creating Layer relu5
I1004 23:31:04.481431  3990 net.cpp:380] relu5 <- conv5
I1004 23:31:04.481439  3990 net.cpp:327] relu5 -> conv5 (in-place)
I1004 23:31:04.481448  3990 net.cpp:113] Setting up relu5
I1004 23:31:04.481518  3990 net.cpp:120] Top shape: 1 256 15 15 (57600)
I1004 23:31:04.481531  3990 layer_factory.hpp:74] Creating layer roi_pool5
I1004 23:31:04.481544  3990 net.cpp:84] Creating Layer roi_pool5
I1004 23:31:04.481551  3990 net.cpp:380] roi_pool5 <- conv5
I1004 23:31:04.481559  3990 net.cpp:380] roi_pool5 <- rois
I1004 23:31:04.481573  3990 net.cpp:338] roi_pool5 -> pool5
I1004 23:31:04.481588  3990 net.cpp:113] Setting up roi_pool5
I1004 23:31:04.481597  3990 roi_pooling_layer.cpp:30] Spatial scale: 0.0625
I1004 23:31:04.481624  3990 net.cpp:120] Top shape: 1 256 6 6 (9216)
I1004 23:31:04.481632  3990 layer_factory.hpp:74] Creating layer fc6
I1004 23:31:04.481643  3990 net.cpp:84] Creating Layer fc6
I1004 23:31:04.481649  3990 net.cpp:380] fc6 <- pool5
I1004 23:31:04.481662  3990 net.cpp:338] fc6 -> fc6
I1004 23:31:04.481672  3990 net.cpp:113] Setting up fc6
I1004 23:31:04.535372  3990 net.cpp:120] Top shape: 1 4096 (4096)
I1004 23:31:04.535414  3990 layer_factory.hpp:74] Creating layer relu6
I1004 23:31:04.535439  3990 net.cpp:84] Creating Layer relu6
I1004 23:31:04.535447  3990 net.cpp:380] relu6 <- fc6
I1004 23:31:04.535457  3990 net.cpp:327] relu6 -> fc6 (in-place)
I1004 23:31:04.535468  3990 net.cpp:113] Setting up relu6
I1004 23:31:04.535567  3990 net.cpp:120] Top shape: 1 4096 (4096)
I1004 23:31:04.535578  3990 layer_factory.hpp:74] Creating layer drop6
I1004 23:31:04.535593  3990 net.cpp:84] Creating Layer drop6
I1004 23:31:04.535600  3990 net.cpp:380] drop6 <- fc6
I1004 23:31:04.535609  3990 net.cpp:327] drop6 -> fc6 (in-place)
I1004 23:31:04.535617  3990 net.cpp:113] Setting up drop6
I1004 23:31:04.535629  3990 net.cpp:120] Top shape: 1 4096 (4096)
I1004 23:31:04.535634  3990 layer_factory.hpp:74] Creating layer fc7
I1004 23:31:04.535648  3990 net.cpp:84] Creating Layer fc7
I1004 23:31:04.535655  3990 net.cpp:380] fc7 <- fc6
I1004 23:31:04.535665  3990 net.cpp:338] fc7 -> fc7
I1004 23:31:04.535676  3990 net.cpp:113] Setting up fc7
I1004 23:31:04.559978  3990 net.cpp:120] Top shape: 1 4096 (4096)
I1004 23:31:04.560020  3990 layer_factory.hpp:74] Creating layer relu7
I1004 23:31:04.560039  3990 net.cpp:84] Creating Layer relu7
I1004 23:31:04.560046  3990 net.cpp:380] relu7 <- fc7
I1004 23:31:04.560057  3990 net.cpp:327] relu7 -> fc7 (in-place)
I1004 23:31:04.560068  3990 net.cpp:113] Setting up relu7
I1004 23:31:04.560379  3990 net.cpp:120] Top shape: 1 4096 (4096)
I1004 23:31:04.560395  3990 layer_factory.hpp:74] Creating layer drop7
I1004 23:31:04.560405  3990 net.cpp:84] Creating Layer drop7
I1004 23:31:04.560411  3990 net.cpp:380] drop7 <- fc7
I1004 23:31:04.560420  3990 net.cpp:327] drop7 -> fc7 (in-place)
I1004 23:31:04.560430  3990 net.cpp:113] Setting up drop7
I1004 23:31:04.560439  3990 net.cpp:120] Top shape: 1 4096 (4096)
I1004 23:31:04.560446  3990 layer_factory.hpp:74] Creating layer fc7_drop7_0_split
I1004 23:31:04.560461  3990 net.cpp:84] Creating Layer fc7_drop7_0_split
I1004 23:31:04.560468  3990 net.cpp:380] fc7_drop7_0_split <- fc7
I1004 23:31:04.560479  3990 net.cpp:338] fc7_drop7_0_split -> fc7_drop7_0_split_0
I1004 23:31:04.560492  3990 net.cpp:338] fc7_drop7_0_split -> fc7_drop7_0_split_1
I1004 23:31:04.560500  3990 net.cpp:113] Setting up fc7_drop7_0_split
I1004 23:31:04.560510  3990 net.cpp:120] Top shape: 1 4096 (4096)
I1004 23:31:04.560518  3990 net.cpp:120] Top shape: 1 4096 (4096)
I1004 23:31:04.560524  3990 layer_factory.hpp:74] Creating layer cls_score
I1004 23:31:04.560537  3990 net.cpp:84] Creating Layer cls_score
I1004 23:31:04.560544  3990 net.cpp:380] cls_score <- fc7_drop7_0_split_0
I1004 23:31:04.560554  3990 net.cpp:338] cls_score -> cls_score_0
I1004 23:31:04.560569  3990 net.cpp:113] Setting up cls_score
I1004 23:31:04.563889  3990 net.cpp:120] Top shape: 1 20 (20)
I1004 23:31:04.563906  3990 layer_factory.hpp:74] Creating layer cls_score_0_cls_score_0_split
I1004 23:31:04.563916  3990 net.cpp:84] Creating Layer cls_score_0_cls_score_0_split
I1004 23:31:04.563923  3990 net.cpp:380] cls_score_0_cls_score_0_split <- cls_score_0
I1004 23:31:04.563935  3990 net.cpp:338] cls_score_0_cls_score_0_split -> cls_score_0_cls_score_0_split_0
I1004 23:31:04.563946  3990 net.cpp:338] cls_score_0_cls_score_0_split -> cls_score_0_cls_score_0_split_1
I1004 23:31:04.563956  3990 net.cpp:113] Setting up cls_score_0_cls_score_0_split
I1004 23:31:04.563966  3990 net.cpp:120] Top shape: 1 20 (20)
I1004 23:31:04.563972  3990 net.cpp:120] Top shape: 1 20 (20)
I1004 23:31:04.563979  3990 layer_factory.hpp:74] Creating layer bbox_pred
I1004 23:31:04.563989  3990 net.cpp:84] Creating Layer bbox_pred
I1004 23:31:04.563995  3990 net.cpp:380] bbox_pred <- fc7_drop7_0_split_1
I1004 23:31:04.564007  3990 net.cpp:338] bbox_pred -> bbox_pred_0
I1004 23:31:04.564016  3990 net.cpp:113] Setting up bbox_pred
I1004 23:31:04.575279  3990 net.cpp:120] Top shape: 1 80 (80)
I1004 23:31:04.575306  3990 layer_factory.hpp:74] Creating layer bbox_pred_0_bbox_pred_0_split
I1004 23:31:04.575319  3990 net.cpp:84] Creating Layer bbox_pred_0_bbox_pred_0_split
I1004 23:31:04.575325  3990 net.cpp:380] bbox_pred_0_bbox_pred_0_split <- bbox_pred_0
I1004 23:31:04.575333  3990 net.cpp:338] bbox_pred_0_bbox_pred_0_split -> bbox_pred_0_bbox_pred_0_split_0
I1004 23:31:04.575345  3990 net.cpp:338] bbox_pred_0_bbox_pred_0_split -> bbox_pred_0_bbox_pred_0_split_1
I1004 23:31:04.575356  3990 net.cpp:113] Setting up bbox_pred_0_bbox_pred_0_split
I1004 23:31:04.575366  3990 net.cpp:120] Top shape: 1 80 (80)
I1004 23:31:04.575372  3990 net.cpp:120] Top shape: 1 80 (80)
I1004 23:31:04.575379  3990 layer_factory.hpp:74] Creating layer sum
I1004 23:31:04.575392  3990 net.cpp:84] Creating Layer sum
I1004 23:31:04.575398  3990 net.cpp:380] sum <- bbox_pred_0_bbox_pred_0_split_0
I1004 23:31:04.575407  3990 net.cpp:380] sum <- bbox_pred_0_bbox_pred_0_split_1
I1004 23:31:04.575414  3990 net.cpp:338] sum -> bbox_pred
I1004 23:31:04.575423  3990 net.cpp:113] Setting up sum
I1004 23:31:04.575438  3990 net.cpp:120] Top shape: 1 80 (80)
I1004 23:31:04.575444  3990 layer_factory.hpp:74] Creating layer sum
I1004 23:31:04.575456  3990 net.cpp:84] Creating Layer sum
I1004 23:31:04.575464  3990 net.cpp:380] sum <- cls_score_0_cls_score_0_split_0
I1004 23:31:04.575470  3990 net.cpp:380] sum <- cls_score_0_cls_score_0_split_1
I1004 23:31:04.575479  3990 net.cpp:338] sum -> cls_score
I1004 23:31:04.575489  3990 net.cpp:113] Setting up sum
I1004 23:31:04.575497  3990 net.cpp:120] Top shape: 1 20 (20)
I1004 23:31:04.575505  3990 layer_factory.hpp:74] Creating layer cls_prob
I1004 23:31:04.575515  3990 net.cpp:84] Creating Layer cls_prob
I1004 23:31:04.575522  3990 net.cpp:380] cls_prob <- cls_score
I1004 23:31:04.575531  3990 net.cpp:338] cls_prob -> cls_prob
I1004 23:31:04.575539  3990 net.cpp:113] Setting up cls_prob
I1004 23:31:04.575616  3990 net.cpp:120] Top shape: 1 20 (20)
I1004 23:31:04.575628  3990 net.cpp:169] cls_prob does not need backward computation.
I1004 23:31:04.575635  3990 net.cpp:169] sum does not need backward computation.
I1004 23:31:04.575641  3990 net.cpp:169] sum does not need backward computation.
I1004 23:31:04.575647  3990 net.cpp:169] bbox_pred_0_bbox_pred_0_split does not need backward computation.
I1004 23:31:04.575652  3990 net.cpp:169] bbox_pred does not need backward computation.
…
