…
           'FG_THRESH': 0.5,
           'IMS_PER_BATCH': 2,
           'MAX_SIZE': 2000,
           'SCALES': [688],
           'SNAPSHOT_INFIX': '',
           'SNAPSHOT_ITERS': 10000,
           'USE_FLIPPED': True,
           'USE_PREFETCH': False}}
WARNING: Logging before InitGoogleLogging() is written to STDERR
I1004 23:22:12.460575  3881 net.cpp:42] Initializing net from parameters: 
name: "CaffeNet"
input: "data"
input: "rois"
state {
  phase: TEST
}
input_shape {
  dim: 1
  dim: 3
  dim: 224
  dim: 224
}
input_shape {
  dim: 1
  dim: 5
}
layer {
  name: "da_conv1"
  type: "Convolution"
  bottom: "data"
  top: "da_conv1"
  param {
    lr_mult: 1
    decay_mult: 1
  }
  param {
    lr_mult: 2
    decay_mult: 0
  }
  convolution_param {
    num_output: 96
    pad: 7
    kernel_size: 11
    stride: 4
    weight_filler {
      type: "gaussian"
      std: 0.01
    }
    bias_filler {
      type: "constant"
      value: 0
    }
  }
}
layer {
  name: "da_relu1"
  type: "ReLU"
  bottom: "da_conv1"
  top: "da_conv1"
}
layer {
  name: "da_pool1"
  type: "Pooling"
  bottom: "da_conv1"
  top: "da_pool1"
  pooling_param {
    pool: MAX
    kernel_size: 3
    stride: 2
    pad: 0
  }
}
layer {
  name: "da_norm1"
  type: "LRN"
  bottom: "da_pool1"
  top: "da_norm1"
  lrn_param {
    local_size: 5
    alpha: 0.0001
    beta: 0.75
  }
}
layer {
  name: "da_conv2"
  type: "Convolution"
  bottom: "da_norm1"
  top: "da_conv2"
  param {
    lr_mult: 1
    decay_mult: 1
  }
  param {
    lr_mult: 2
    decay_mult: 0
  }
  convolution_param {
    num_output: 256
    pad: 2
    kernel_size: 5
    group: 2
    stride: 1
    weight_filler {
      type: "gaussian"
      std: 0.01
    }
    bias_filler {
      type: "constant"
      value: 1
    }
  }
}
layer {
  name: "da_relu2"
  type: "ReLU"
  bottom: "da_conv2"
  top: "da_conv2"
}
layer {
  name: "da_pool2"
  type: "Pooling"
  bottom: "da_conv2"
  top: "da_pool2"
  pooling_param {
    pool: MAX
    kernel_size: 3
    stride: 2
    pad: 0
  }
}
layer {
  name: "da_norm2"
  type: "LRN"
  bottom: "da_pool2"
  top: "da_norm2"
  lrn_param {
    local_size: 5
    alpha: 0.0001
    beta: 0.75
  }
}
layer {
  name: "da_conv3"
  type: "Convolution"
  bottom: "da_norm2"
  top: "da_conv3"
  param {
    lr_mult: 1
    decay_mult: 1
  }
  param {
    lr_mult: 2
    decay_mult: 0
  }
  convolution_param {
    num_output: 384
    pad: 1
    kernel_size: 3
    stride: 1
    weight_filler {
      type: "gaussian"
      std: 0.01
    }
    bias_filler {
      type: "constant"
      value: 0
    }
  }
}
layer {
  name: "da_relu3"
  type: "ReLU"
  bottom: "da_conv3"
  top: "da_conv3"
}
layer {
  name: "da_conv4"
  type: "Convolution"
  bottom: "da_conv3"
  top: "da_conv4"
  param {
    lr_mult: 1
    decay_mult: 1
  }
  param {
    lr_mult: 2
    decay_mult: 0
  }
  convolution_param {
    num_output: 384
    pad: 1
    kernel_size: 3
    group: 2
    stride: 1
    weight_filler {
      type: "gaussian"
      std: 0.01
    }
    bias_filler {
      type: "constant"
      value: 1
    }
  }
}
layer {
  name: "da_relu4"
  type: "ReLU"
  bottom: "da_conv4"
  top: "da_conv4"
}
layer {
  name: "da_conv5"
  type: "Convolution"
  bottom: "da_conv4"
  top: "da_conv5"
  param {
    lr_mult: 1
    decay_mult: 1
  }
  param {
    lr_mult: 2
    decay_mult: 0
  }
  convolution_param {
    num_output: 256
    pad: 1
    kernel_size: 3
    group: 2
    stride: 1
    weight_filler {
      type: "gaussian"
      std: 0.01
    }
    bias_filler {
      type: "constant"
      value: 1
    }
  }
}
layer {
  name: "da_relu5"
  type: "ReLU"
  bottom: "da_conv5"
  top: "da_conv5"
}
layer {
  name: "da_roi_pool5"
  type: "ROIPooling"
  bottom: "da_conv5"
  bottom: "rois"
  top: "da_pool5"
  roi_pooling_param {
    pooled_h: 6
    pooled_w: 6
    spatial_scale: 0.0625
  }
}
layer {
  name: "da_fc6"
  type: "InnerProduct"
  bottom: "da_pool5"
  top: "da_fc6"
  param {
    lr_mult: 1
    decay_mult: 1
  }
  param {
    lr_mult: 2
    decay_mult: 0
  }
  inner_product_param {
    num_output: 4096
    weight_filler {
      type: "gaussian"
      std: 0.005
    }
    bias_filler {
      type: "constant"
      value: 1
    }
  }
}
layer {
  name: "da_relu6"
  type: "ReLU"
  bottom: "da_fc6"
  top: "da_fc6"
}
layer {
  name: "da_drop6"
  type: "Dropout"
  bottom: "da_fc6"
  top: "da_fc6"
  dropout_param {
    dropout_ratio: 0.5
  }
}
layer {
  name: "da_fc7"
  type: "InnerProduct"
  bottom: "da_fc6"
  top: "da_fc7"
  param {
    lr_mult: 1
    decay_mult: 1
  }
  param {
    lr_mult: 2
    decay_mult: 0
  }
  inner_product_param {
    num_output: 4096
    weight_filler {
      type: "gaussian"
      std: 0.005
    }
    bias_filler {
      type: "constant"
      value: 1
    }
  }
}
layer {
  name: "da_relu7"
  type: "ReLU"
  bottom: "da_fc7"
  top: "da_fc7"
}
layer {
  name: "da_drop7"
  type: "Dropout"
  bottom: "da_fc7"
  top: "da_fc7"
  dropout_param {
    dropout_ratio: 0.5
  }
}
layer {
  name: "da_cls_score"
  type: "InnerProduct"
  bottom: "da_fc7"
  top: "cls_score_1"
  param {
    lr_mult: 1
    decay_mult: 1
  }
  param {
    lr_mult: 2
    decay_mult: 0
  }
  inner_product_param {
    num_output: 20
    weight_filler {
      type: "gaussian"
      std: 0.01
    }
    bias_filler {
      type: "constant"
      value: 0
    }
  }
}
layer {
  name: "da_bbox_pred"
  type: "InnerProduct"
  bottom: "da_fc7"
  top: "bbox_pred_1"
  param {
    lr_mult: 1
    decay_mult: 1
  }
  param {
    lr_mult: 2
    decay_mult: 0
  }
  inner_product_param {
    num_output: 80
    weight_filler {
      type: "gaussian"
      std: 0.001
    }
    bias_filler {
      type: "constant"
      value: 0
    }
  }
}
layer {
  name: "sum"
  type: "Eltwise"
  bottom: "bbox_pred_1"
  bottom: "bbox_pred_1"
  top: "bbox_pred"
  eltwise_param {
    operation: SUM
    coeff: 0.5
    coeff: 0.5
  }
}
layer {
  name: "sum"
  type: "Eltwise"
  bottom: "cls_score_1"
  bottom: "cls_score_1"
  top: "cls_score"
  eltwise_param {
    operation: SUM
    coeff: 0.5
    coeff: 0.5
  }
}
layer {
  name: "cls_prob"
  type: "Softmax"
  bottom: "cls_score"
  top: "cls_prob"
}
I1004 23:22:12.460741  3881 net.cpp:340] Input 0 -> data
I1004 23:22:12.460770  3881 net.cpp:340] Input 1 -> rois
I1004 23:22:12.460790  3881 layer_factory.hpp:74] Creating layer da_conv1
I1004 23:22:12.460806  3881 net.cpp:84] Creating Layer da_conv1
I1004 23:22:12.460814  3881 net.cpp:380] da_conv1 <- data
I1004 23:22:12.460826  3881 net.cpp:338] da_conv1 -> da_conv1
I1004 23:22:12.460839  3881 net.cpp:113] Setting up da_conv1
I1004 23:22:12.525744  3881 net.cpp:120] Top shape: 1 96 57 57 (311904)
I1004 23:22:12.525786  3881 layer_factory.hpp:74] Creating layer da_relu1
I1004 23:22:12.525804  3881 net.cpp:84] Creating Layer da_relu1
I1004 23:22:12.525811  3881 net.cpp:380] da_relu1 <- da_conv1
I1004 23:22:12.525821  3881 net.cpp:327] da_relu1 -> da_conv1 (in-place)
I1004 23:22:12.525832  3881 net.cpp:113] Setting up da_relu1
I1004 23:22:12.525894  3881 net.cpp:120] Top shape: 1 96 57 57 (311904)
I1004 23:22:12.525908  3881 layer_factory.hpp:74] Creating layer da_pool1
I1004 23:22:12.525921  3881 net.cpp:84] Creating Layer da_pool1
I1004 23:22:12.525928  3881 net.cpp:380] da_pool1 <- da_conv1
I1004 23:22:12.525938  3881 net.cpp:338] da_pool1 -> da_pool1
I1004 23:22:12.525948  3881 net.cpp:113] Setting up da_pool1
I1004 23:22:12.526011  3881 net.cpp:120] Top shape: 1 96 28 28 (75264)
I1004 23:22:12.526024  3881 layer_factory.hpp:74] Creating layer da_norm1
I1004 23:22:12.526036  3881 net.cpp:84] Creating Layer da_norm1
I1004 23:22:12.526043  3881 net.cpp:380] da_norm1 <- da_pool1
I1004 23:22:12.526052  3881 net.cpp:338] da_norm1 -> da_norm1
I1004 23:22:12.526063  3881 net.cpp:113] Setting up da_norm1
I1004 23:22:12.526077  3881 net.cpp:120] Top shape: 1 96 28 28 (75264)
I1004 23:22:12.526084  3881 layer_factory.hpp:74] Creating layer da_conv2
I1004 23:22:12.526098  3881 net.cpp:84] Creating Layer da_conv2
I1004 23:22:12.526104  3881 net.cpp:380] da_conv2 <- da_norm1
I1004 23:22:12.526113  3881 net.cpp:338] da_conv2 -> da_conv2
I1004 23:22:12.526124  3881 net.cpp:113] Setting up da_conv2
I1004 23:22:12.537463  3881 net.cpp:120] Top shape: 1 256 28 28 (200704)
I1004 23:22:12.537485  3881 layer_factory.hpp:74] Creating layer da_relu2
I1004 23:22:12.537497  3881 net.cpp:84] Creating Layer da_relu2
I1004 23:22:12.537503  3881 net.cpp:380] da_relu2 <- da_conv2
I1004 23:22:12.537513  3881 net.cpp:327] da_relu2 -> da_conv2 (in-place)
I1004 23:22:12.537521  3881 net.cpp:113] Setting up da_relu2
I1004 23:22:12.537576  3881 net.cpp:120] Top shape: 1 256 28 28 (200704)
I1004 23:22:12.537586  3881 layer_factory.hpp:74] Creating layer da_pool2
I1004 23:22:12.537596  3881 net.cpp:84] Creating Layer da_pool2
I1004 23:22:12.537603  3881 net.cpp:380] da_pool2 <- da_conv2
I1004 23:22:12.537612  3881 net.cpp:338] da_pool2 -> da_pool2
I1004 23:22:12.537621  3881 net.cpp:113] Setting up da_pool2
I1004 23:22:12.537817  3881 net.cpp:120] Top shape: 1 256 14 14 (50176)
I1004 23:22:12.537832  3881 layer_factory.hpp:74] Creating layer da_norm2
I1004 23:22:12.537842  3881 net.cpp:84] Creating Layer da_norm2
I1004 23:22:12.537850  3881 net.cpp:380] da_norm2 <- da_pool2
I1004 23:22:12.537859  3881 net.cpp:338] da_norm2 -> da_norm2
I1004 23:22:12.537869  3881 net.cpp:113] Setting up da_norm2
I1004 23:22:12.537879  3881 net.cpp:120] Top shape: 1 256 14 14 (50176)
I1004 23:22:12.537886  3881 layer_factory.hpp:74] Creating layer da_conv3
I1004 23:22:12.537897  3881 net.cpp:84] Creating Layer da_conv3
I1004 23:22:12.537904  3881 net.cpp:380] da_conv3 <- da_norm2
I1004 23:22:12.537914  3881 net.cpp:338] da_conv3 -> da_conv3
I1004 23:22:12.537925  3881 net.cpp:113] Setting up da_conv3
I1004 23:22:12.569178  3881 net.cpp:120] Top shape: 1 384 14 14 (75264)
I1004 23:22:12.569205  3881 layer_factory.hpp:74] Creating layer da_relu3
I1004 23:22:12.569216  3881 net.cpp:84] Creating Layer da_relu3
I1004 23:22:12.569224  3881 net.cpp:380] da_relu3 <- da_conv3
I1004 23:22:12.569233  3881 net.cpp:327] da_relu3 -> da_conv3 (in-place)
I1004 23:22:12.569243  3881 net.cpp:113] Setting up da_relu3
I1004 23:22:12.569299  3881 net.cpp:120] Top shape: 1 384 14 14 (75264)
I1004 23:22:12.569309  3881 layer_factory.hpp:74] Creating layer da_conv4
I1004 23:22:12.569320  3881 net.cpp:84] Creating Layer da_conv4
I1004 23:22:12.569327  3881 net.cpp:380] da_conv4 <- da_conv3
I1004 23:22:12.569337  3881 net.cpp:338] da_conv4 -> da_conv4
I1004 23:22:12.569349  3881 net.cpp:113] Setting up da_conv4
I1004 23:22:12.593691  3881 net.cpp:120] Top shape: 1 384 14 14 (75264)
I1004 23:22:12.593714  3881 layer_factory.hpp:74] Creating layer da_relu4
I1004 23:22:12.593725  3881 net.cpp:84] Creating Layer da_relu4
I1004 23:22:12.593732  3881 net.cpp:380] da_relu4 <- da_conv4
I1004 23:22:12.593741  3881 net.cpp:327] da_relu4 -> da_conv4 (in-place)
I1004 23:22:12.593751  3881 net.cpp:113] Setting up da_relu4
I1004 23:22:12.593807  3881 net.cpp:120] Top shape: 1 384 14 14 (75264)
I1004 23:22:12.593817  3881 layer_factory.hpp:74] Creating layer da_conv5
I1004 23:22:12.593828  3881 net.cpp:84] Creating Layer da_conv5
I1004 23:22:12.593835  3881 net.cpp:380] da_conv5 <- da_conv4
I1004 23:22:12.593845  3881 net.cpp:338] da_conv5 -> da_conv5
I1004 23:22:12.593857  3881 net.cpp:113] Setting up da_conv5
I1004 23:22:12.610327  3881 net.cpp:120] Top shape: 1 256 14 14 (50176)
I1004 23:22:12.610352  3881 layer_factory.hpp:74] Creating layer da_relu5
I1004 23:22:12.610363  3881 net.cpp:84] Creating Layer da_relu5
I1004 23:22:12.610369  3881 net.cpp:380] da_relu5 <- da_conv5
I1004 23:22:12.610378  3881 net.cpp:327] da_relu5 -> da_conv5 (in-place)
I1004 23:22:12.610388  3881 net.cpp:113] Setting up da_relu5
I1004 23:22:12.610589  3881 net.cpp:120] Top shape: 1 256 14 14 (50176)
I1004 23:22:12.610605  3881 layer_factory.hpp:74] Creating layer da_roi_pool5
I1004 23:22:12.610620  3881 net.cpp:84] Creating Layer da_roi_pool5
I1004 23:22:12.610627  3881 net.cpp:380] da_roi_pool5 <- da_conv5
I1004 23:22:12.610635  3881 net.cpp:380] da_roi_pool5 <- rois
I1004 23:22:12.610646  3881 net.cpp:338] da_roi_pool5 -> da_pool5
I1004 23:22:12.610657  3881 net.cpp:113] Setting up da_roi_pool5
I1004 23:22:12.610666  3881 roi_pooling_layer.cpp:30] Spatial scale: 0.0625
I1004 23:22:12.610690  3881 net.cpp:120] Top shape: 1 256 6 6 (9216)
I1004 23:22:12.610697  3881 layer_factory.hpp:74] Creating layer da_fc6
I1004 23:22:12.610708  3881 net.cpp:84] Creating Layer da_fc6
I1004 23:22:12.610715  3881 net.cpp:380] da_fc6 <- da_pool5
I1004 23:22:12.610725  3881 net.cpp:338] da_fc6 -> da_fc6
I1004 23:22:12.610736  3881 net.cpp:113] Setting up da_fc6
I1004 23:22:13.934093  3881 net.cpp:120] Top shape: 1 4096 (4096)
I1004 23:22:13.934131  3881 layer_factory.hpp:74] Creating layer da_relu6
I1004 23:22:13.934149  3881 net.cpp:84] Creating Layer da_relu6
I1004 23:22:13.934157  3881 net.cpp:380] da_relu6 <- da_fc6
I1004 23:22:13.934167  3881 net.cpp:327] da_relu6 -> da_fc6 (in-place)
I1004 23:22:13.934180  3881 net.cpp:113] Setting up da_relu6
I1004 23:22:13.934268  3881 net.cpp:120] Top shape: 1 4096 (4096)
I1004 23:22:13.934280  3881 layer_factory.hpp:74] Creating layer da_drop6
I1004 23:22:13.934299  3881 net.cpp:84] Creating Layer da_drop6
I1004 23:22:13.934308  3881 net.cpp:380] da_drop6 <- da_fc6
I1004 23:22:13.934315  3881 net.cpp:327] da_drop6 -> da_fc6 (in-place)
I1004 23:22:13.934325  3881 net.cpp:113] Setting up da_drop6
I1004 23:22:13.934335  3881 net.cpp:120] Top shape: 1 4096 (4096)
I1004 23:22:13.934342  3881 layer_factory.hpp:74] Creating layer da_fc7
I1004 23:22:13.934353  3881 net.cpp:84] Creating Layer da_fc7
I1004 23:22:13.934360  3881 net.cpp:380] da_fc7 <- da_fc6
I1004 23:22:13.934370  3881 net.cpp:338] da_fc7 -> da_fc7
I1004 23:22:13.934381  3881 net.cpp:113] Setting up da_fc7
I1004 23:22:14.519783  3881 net.cpp:120] Top shape: 1 4096 (4096)
I1004 23:22:14.519819  3881 layer_factory.hpp:74] Creating layer da_relu7
I1004 23:22:14.519836  3881 net.cpp:84] Creating Layer da_relu7
I1004 23:22:14.519845  3881 net.cpp:380] da_relu7 <- da_fc7
I1004 23:22:14.519855  3881 net.cpp:327] da_relu7 -> da_fc7 (in-place)
I1004 23:22:14.519865  3881 net.cpp:113] Setting up da_relu7
I1004 23:22:14.519955  3881 net.cpp:120] Top shape: 1 4096 (4096)
I1004 23:22:14.519966  3881 layer_factory.hpp:74] Creating layer da_drop7
I1004 23:22:14.519979  3881 net.cpp:84] Creating Layer da_drop7
I1004 23:22:14.519984  3881 net.cpp:380] da_drop7 <- da_fc7
I1004 23:22:14.519994  3881 net.cpp:327] da_drop7 -> da_fc7 (in-place)
I1004 23:22:14.520002  3881 net.cpp:113] Setting up da_drop7
I1004 23:22:14.520014  3881 net.cpp:120] Top shape: 1 4096 (4096)
I1004 23:22:14.520020  3881 layer_factory.hpp:74] Creating layer da_fc7_da_drop7_0_split
I1004 23:22:14.520037  3881 net.cpp:84] Creating Layer da_fc7_da_drop7_0_split
I1004 23:22:14.520045  3881 net.cpp:380] da_fc7_da_drop7_0_split <- da_fc7
I1004 23:22:14.520053  3881 net.cpp:338] da_fc7_da_drop7_0_split -> da_fc7_da_drop7_0_split_0
I1004 23:22:14.520064  3881 net.cpp:338] da_fc7_da_drop7_0_split -> da_fc7_da_drop7_0_split_1
I1004 23:22:14.520078  3881 net.cpp:113] Setting up da_fc7_da_drop7_0_split
I1004 23:22:14.520088  3881 net.cpp:120] Top shape: 1 4096 (4096)
I1004 23:22:14.520097  3881 net.cpp:120] Top shape: 1 4096 (4096)
I1004 23:22:14.520103  3881 layer_factory.hpp:74] Creating layer da_cls_score
I1004 23:22:14.520114  3881 net.cpp:84] Creating Layer da_cls_score
I1004 23:22:14.520122  3881 net.cpp:380] da_cls_score <- da_fc7_da_drop7_0_split_0
I1004 23:22:14.520130  3881 net.cpp:338] da_cls_score -> cls_score_1
I1004 23:22:14.520145  3881 net.cpp:113] Setting up da_cls_score
I1004 23:22:14.523059  3881 net.cpp:120] Top shape: 1 20 (20)
I1004 23:22:14.523077  3881 layer_factory.hpp:74] Creating layer cls_score_1_da_cls_score_0_split
I1004 23:22:14.523087  3881 net.cpp:84] Creating Layer cls_score_1_da_cls_score_0_split
I1004 23:22:14.523097  3881 net.cpp:380] cls_score_1_da_cls_score_0_split <- cls_score_1
I1004 23:22:14.523107  3881 net.cpp:338] cls_score_1_da_cls_score_0_split -> cls_score_1_da_cls_score_0_split_0
I1004 23:22:14.523118  3881 net.cpp:338] cls_score_1_da_cls_score_0_split -> cls_score_1_da_cls_score_0_split_1
I1004 23:22:14.523126  3881 net.cpp:113] Setting up cls_score_1_da_cls_score_0_split
I1004 23:22:14.523136  3881 net.cpp:120] Top shape: 1 20 (20)
I1004 23:22:14.523144  3881 net.cpp:120] Top shape: 1 20 (20)
I1004 23:22:14.523150  3881 layer_factory.hpp:74] Creating layer da_bbox_pred
I1004 23:22:14.523159  3881 net.cpp:84] Creating Layer da_bbox_pred
I1004 23:22:14.523166  3881 net.cpp:380] da_bbox_pred <- da_fc7_da_drop7_0_split_1
I1004 23:22:14.523176  3881 net.cpp:338] da_bbox_pred -> bbox_pred_1
I1004 23:22:14.523186  3881 net.cpp:113] Setting up da_bbox_pred
I1004 23:22:14.534494  3881 net.cpp:120] Top shape: 1 80 (80)
I1004 23:22:14.534517  3881 layer_factory.hpp:74] Creating layer bbox_pred_1_da_bbox_pred_0_split
I1004 23:22:14.534529  3881 net.cpp:84] Creating Layer bbox_pred_1_da_bbox_pred_0_split
I1004 23:22:14.534536  3881 net.cpp:380] bbox_pred_1_da_bbox_pred_0_split <- bbox_pred_1
I1004 23:22:14.534546  3881 net.cpp:338] bbox_pred_1_da_bbox_pred_0_split -> bbox_pred_1_da_bbox_pred_0_split_0
I1004 23:22:14.534556  3881 net.cpp:338] bbox_pred_1_da_bbox_pred_0_split -> bbox_pred_1_da_bbox_pred_0_split_1
I1004 23:22:14.534566  3881 net.cpp:113] Setting up bbox_pred_1_da_bbox_pred_0_split
I1004 23:22:14.534575  3881 net.cpp:120] Top shape: 1 80 (80)
I1004 23:22:14.534584  3881 net.cpp:120] Top shape: 1 80 (80)
I1004 23:22:14.534590  3881 layer_factory.hpp:74] Creating layer sum
I1004 23:22:14.534603  3881 net.cpp:84] Creating Layer sum
I1004 23:22:14.534610  3881 net.cpp:380] sum <- bbox_pred_1_da_bbox_pred_0_split_0
I1004 23:22:14.534618  3881 net.cpp:380] sum <- bbox_pred_1_da_bbox_pred_0_split_1
I1004 23:22:14.534627  3881 net.cpp:338] sum -> bbox_pred
I1004 23:22:14.534637  3881 net.cpp:113] Setting up sum
I1004 23:22:14.534651  3881 net.cpp:120] Top shape: 1 80 (80)
I1004 23:22:14.534658  3881 layer_factory.hpp:74] Creating layer sum
I1004 23:22:14.534667  3881 net.cpp:84] Creating Layer sum
I1004 23:22:14.534674  3881 net.cpp:380] sum <- cls_score_1_da_cls_score_0_split_0
I1004 23:22:14.534682  3881 net.cpp:380] sum <- cls_score_1_da_cls_score_0_split_1
I1004 23:22:14.534690  3881 net.cpp:338] sum -> cls_score
I1004 23:22:14.534699  3881 net.cpp:113] Setting up sum
I1004 23:22:14.534709  3881 net.cpp:120] Top shape: 1 20 (20)
I1004 23:22:14.534716  3881 layer_factory.hpp:74] Creating layer cls_prob
I1004 23:22:14.534724  3881 net.cpp:84] Creating Layer cls_prob
I1004 23:22:14.534731  3881 net.cpp:380] cls_prob <- cls_score
I1004 23:22:14.534739  3881 net.cpp:338] cls_prob -> cls_prob
I1004 23:22:14.534749  3881 net.cpp:113] Setting up cls_prob
I1004 23:22:14.534818  3881 net.cpp:120] Top shape: 1 20 (20)
I1004 23:22:14.534831  3881 net.cpp:169] cls_prob does not need backward computation.
I1004 23:22:14.534837  3881 net.cpp:169] sum does not need backward computation.
I1004 23:22:14.534843  3881 net.cpp:169] sum does not need backward computation.
I1004 23:22:14.534849  3881 net.cpp:169] bbox_pred_1_da_bbox_pred_0_split does not need backward computation.
I1004 23:22:14.534855  3881 net.cpp:169] da_bbox_pred does not need backward computation.
…
