…
           'MAX_SIZE': 2000,
           'SCALES': [688],
           'SNAPSHOT_INFIX': '',
           'SNAPSHOT_ITERS': 10000,
           'USE_FLIPPED': True,
           'USE_PREFETCH': False}}
WARNING: Logging before InitGoogleLogging() is written to STDERR
I1004 23:12:27.829743  3754 net.cpp:42] Initializing net from parameters: 
name: "CaffeNet"
input: "data"
input: "data_1"
input: "rois"
state {
  phase: TEST
}
input_shape {
  dim: 1
  dim: 3
  dim: 227
  dim: 227
}
input_shape {
  dim: 1
  dim: 3
  dim: 227
  dim: 227
}
input_shape {
  dim: 1
  dim: 5
}
layer {
  name: "conv1"
  type: "Convolution"
  bottom: "data"
  top: "conv1"
  param {
    lr_mult: 1
    decay_mult: 1
  }
  param {
    lr_mult: 2
    decay_mult: 0
  }
  convolution_param {
    num_output: 96
    pad: 5
    kernel_size: 11
    stride: 4
  }
}
layer {
  name: "relu1"
  type: "ReLU"
  bottom: "conv1"
  top: "conv1"
}
layer {
  name: "pool1"
  type: "Pooling"
  bottom: "conv1"
  top: "pool1"
  pooling_param {
    pool: MAX
    kernel_size: 3
    stride: 2
    pad: 1
  }
}
layer {
  name: "norm1"
  type: "LRN"
  bottom: "pool1"
  top: "norm1"
  lrn_param {
    local_size: 5
    alpha: 0.0001
    beta: 0.75
  }
}
layer {
  name: "conv2"
  type: "Convolution"
  bottom: "norm1"
  top: "conv2"
  param {
    lr_mult: 1
    decay_mult: 1
  }
  param {
    lr_mult: 2
    decay_mult: 0
  }
  convolution_param {
    num_output: 256
    pad: 2
    kernel_size: 5
    group: 2
  }
}
layer {
  name: "relu2"
  type: "ReLU"
  bottom: "conv2"
  top: "conv2"
}
layer {
  name: "pool2"
  type: "Pooling"
  bottom: "conv2"
  top: "pool2"
  pooling_param {
    pool: MAX
    kernel_size: 3
    stride: 2
    pad: 1
  }
}
layer {
  name: "norm2"
  type: "LRN"
  bottom: "pool2"
  top: "norm2"
  lrn_param {
    local_size: 5
    alpha: 0.0001
    beta: 0.75
  }
}
layer {
  name: "conv3"
  type: "Convolution"
  bottom: "norm2"
  top: "conv3"
  param {
    lr_mult: 1
    decay_mult: 1
  }
  param {
    lr_mult: 2
    decay_mult: 0
  }
  convolution_param {
    num_output: 384
    pad: 1
    kernel_size: 3
  }
}
layer {
  name: "relu3"
  type: "ReLU"
  bottom: "conv3"
  top: "conv3"
}
layer {
  name: "conv4"
  type: "Convolution"
  bottom: "conv3"
  top: "conv4"
  param {
    lr_mult: 1
    decay_mult: 1
  }
  param {
    lr_mult: 2
    decay_mult: 0
  }
  convolution_param {
    num_output: 384
    pad: 1
    kernel_size: 3
    group: 2
  }
}
layer {
  name: "relu4"
  type: "ReLU"
  bottom: "conv4"
  top: "conv4"
}
layer {
  name: "conv5"
  type: "Convolution"
  bottom: "conv4"
  top: "conv5"
  param {
    lr_mult: 1
    decay_mult: 1
  }
  param {
    lr_mult: 2
    decay_mult: 0
  }
  convolution_param {
    num_output: 256
    pad: 1
    kernel_size: 3
    group: 2
  }
}
layer {
  name: "relu5"
  type: "ReLU"
  bottom: "conv5"
  top: "conv5"
}
layer {
  name: "roi_pool5"
  type: "ROIPooling"
  bottom: "conv5"
  bottom: "rois"
  top: "pool5"
  roi_pooling_param {
    pooled_h: 6
    pooled_w: 6
    spatial_scale: 0.0625
  }
}
layer {
  name: "fc6"
  type: "InnerProduct"
  bottom: "pool5"
  top: "fc6"
  param {
    lr_mult: 1
    decay_mult: 1
  }
  param {
    lr_mult: 2
    decay_mult: 0
  }
  inner_product_param {
    num_output: 4096
  }
}
layer {
  name: "relu6"
  type: "ReLU"
  bottom: "fc6"
  top: "fc6"
}
layer {
  name: "drop6"
  type: "Dropout"
  bottom: "fc6"
  top: "fc6"
  dropout_param {
    dropout_ratio: 0.5
  }
}
layer {
  name: "fc7"
  type: "InnerProduct"
  bottom: "fc6"
  top: "fc7"
  param {
    lr_mult: 1
    decay_mult: 1
  }
  param {
    lr_mult: 2
    decay_mult: 0
  }
  inner_product_param {
    num_output: 4096
  }
}
layer {
  name: "relu7"
  type: "ReLU"
  bottom: "fc7"
  top: "fc7"
}
layer {
  name: "drop7"
  type: "Dropout"
  bottom: "fc7"
  top: "fc7"
  dropout_param {
    dropout_ratio: 0.5
  }
}
layer {
  name: "da_conv1"
  type: "Convolution"
  bottom: "data_1"
  top: "da_conv1"
  param {
    lr_mult: 1
    decay_mult: 1
  }
  param {
    lr_mult: 2
    decay_mult: 0
  }
  convolution_param {
    num_output: 96
    pad: 7
    kernel_size: 11
    stride: 4
    weight_filler {
      type: "gaussian"
      std: 0.01
    }
    bias_filler {
      type: "constant"
      value: 0
    }
  }
}
layer {
  name: "da_relu1"
  type: "ReLU"
  bottom: "da_conv1"
  top: "da_conv1"
}
layer {
  name: "da_pool1"
  type: "Pooling"
  bottom: "da_conv1"
  top: "da_pool1"
  pooling_param {
    pool: MAX
    kernel_size: 3
    stride: 2
    pad: 0
  }
}
layer {
  name: "da_norm1"
  type: "LRN"
  bottom: "da_pool1"
  top: "da_norm1"
  lrn_param {
    local_size: 5
    alpha: 0.0001
    beta: 0.75
  }
}
layer {
  name: "da_conv2"
  type: "Convolution"
  bottom: "da_norm1"
  top: "da_conv2"
  param {
    lr_mult: 1
    decay_mult: 1
  }
  param {
    lr_mult: 2
    decay_mult: 0
  }
  convolution_param {
    num_output: 256
    pad: 2
    kernel_size: 5
    group: 2
    stride: 1
    weight_filler {
      type: "gaussian"
      std: 0.01
    }
    bias_filler {
      type: "constant"
      value: 1
    }
  }
}
layer {
  name: "da_relu2"
  type: "ReLU"
  bottom: "da_conv2"
  top: "da_conv2"
}
layer {
  name: "da_pool2"
  type: "Pooling"
  bottom: "da_conv2"
  top: "da_pool2"
  pooling_param {
    pool: MAX
    kernel_size: 3
    stride: 2
    pad: 0
  }
}
layer {
  name: "da_norm2"
  type: "LRN"
  bottom: "da_pool2"
  top: "da_norm2"
  lrn_param {
    local_size: 5
    alpha: 0.0001
    beta: 0.75
  }
}
layer {
  name: "da_conv3"
  type: "Convolution"
  bottom: "da_norm2"
  top: "da_conv3"
  param {
    lr_mult: 1
    decay_mult: 1
  }
  param {
    lr_mult: 2
    decay_mult: 0
  }
  convolution_param {
    num_output: 384
    pad: 1
    kernel_size: 3
    stride: 1
    weight_filler {
      type: "gaussian"
      std: 0.01
    }
    bias_filler {
      type: "constant"
      value: 0
    }
  }
}
layer {
  name: "da_relu3"
  type: "ReLU"
  bottom: "da_conv3"
  top: "da_conv3"
}
layer {
  name: "da_conv4"
  type: "Convolution"
  bottom: "da_conv3"
  top: "da_conv4"
  param {
    lr_mult: 1
    decay_mult: 1
  }
  param {
    lr_mult: 2
    decay_mult: 0
  }
  convolution_param {
    num_output: 384
    pad: 1
    kernel_size: 3
    group: 2
    stride: 1
    weight_filler {
      type: "gaussian"
      std: 0.01
    }
    bias_filler {
      type: "constant"
      value: 1
    }
  }
}
layer {
  name: "da_relu4"
  type: "ReLU"
  bottom: "da_conv4"
  top: "da_conv4"
}
layer {
  name: "da_conv5"
  type: "Convolution"
  bottom: "da_conv4"
  top: "da_conv5"
  param {
    lr_mult: 1
    decay_mult: 1
  }
  param {
    lr_mult: 2
    decay_mult: 0
  }
  convolution_param {
    num_output: 256
    pad: 1
    kernel_size: 3
    group: 2
    stride: 1
    weight_filler {
      type: "gaussian"
      std: 0.01
    }
    bias_filler {
      type: "constant"
      value: 1
    }
  }
}
layer {
  name: "da_relu5"
  type: "ReLU"
  bottom: "da_conv5"
  top: "da_conv5"
}
layer {
  name: "da_roi_pool5"
  type: "ROIPooling"
  bottom: "da_conv5"
  bottom: "rois"
  top: "da_pool5"
  roi_pooling_param {
    pooled_h: 6
    pooled_w: 6
    spatial_scale: 0.0625
  }
}
layer {
  name: "da_fc6"
  type: "InnerProduct"
  bottom: "da_pool5"
  top: "da_fc6"
  param {
    lr_mult: 1
    decay_mult: 1
  }
  param {
    lr_mult: 2
    decay_mult: 0
  }
  inner_product_param {
    num_output: 4096
    weight_filler {
      type: "gaussian"
      std: 0.005
    }
    bias_filler {
      type: "constant"
      value: 1
    }
  }
}
layer {
  name: "da_relu6"
  type: "ReLU"
  bottom: "da_fc6"
  top: "da_fc6"
}
layer {
  name: "da_drop6"
  type: "Dropout"
  bottom: "da_fc6"
  top: "da_fc6"
  dropout_param {
    dropout_ratio: 0.5
  }
}
layer {
  name: "da_fc7"
  type: "InnerProduct"
  bottom: "da_fc6"
  top: "da_fc7"
  param {
    lr_mult: 1
    decay_mult: 1
  }
  param {
    lr_mult: 2
    decay_mult: 0
  }
  inner_product_param {
    num_output: 4096
    weight_filler {
      type: "gaussian"
      std: 0.005
    }
    bias_filler {
      type: "constant"
      value: 1
    }
  }
}
layer {
  name: "da_relu7"
  type: "ReLU"
  bottom: "da_fc7"
  top: "da_fc7"
}
layer {
  name: "da_drop7"
  type: "Dropout"
  bottom: "da_fc7"
  top: "da_fc7"
  dropout_param {
    dropout_ratio: 0.5
  }
}
layer {
  name: "cls_score"
  type: "InnerProduct"
  bottom: "fc7"
  top: "cls_score_0"
  param {
    lr_mult: 1
    decay_mult: 1
  }
  param {
    lr_mult: 2
    decay_mult: 0
  }
  inner_product_param {
    num_output: 20
    weight_filler {
      type: "gaussian"
      std: 0.01
    }
    bias_filler {
      type: "constant"
      value: 0
    }
  }
}
layer {
  name: "da_cls_score"
  type: "InnerProduct"
  bottom: "da_fc7"
  top: "cls_score_1"
  param {
    lr_mult: 1
    decay_mult: 1
  }
  param {
    lr_mult: 2
    decay_mult: 0
  }
  inner_product_param {
    num_output: 20
    weight_filler {
      type: "gaussian"
      std: 0.01
    }
    bias_filler {
      type: "constant"
      value: 0
    }
  }
}
layer {
  name: "bbox_pred"
  type: "InnerProduct"
  bottom: "fc7"
  top: "bbox_pred_0"
  param {
    lr_mult: 1
    decay_mult: 1
  }
  param {
    lr_mult: 2
    decay_mult: 0
  }
  inner_product_param {
    num_output: 80
    weight_filler {
      type: "gaussian"
      std: 0.001
    }
    bias_filler {
      type: "constant"
      value: 0
    }
  }
}
layer {
  name: "da_bbox_pred"
  type: "InnerProduct"
  bottom: "da_fc7"
  top: "bbox_pred_1"
  param {
    lr_mult: 1
    decay_mult: 1
  }
  param {
    lr_mult: 2
    decay_mult: 0
  }
  inner_product_param {
    num_output: 80
    weight_filler {
      type: "gaussian"
      std: 0.001
    }
    bias_filler {
      type: "constant"
      value: 0
    }
  }
}
layer {
  name: "sum"
  type: "Eltwise"
  bottom: "bbox_pred_0"
  bottom: "bbox_pred_1"
  top: "bbox_pred"
  eltwise_param {
    operation: SUM
    coeff: 0.5
    coeff: 0.5
  }
}
layer {
  name: "sum"
  type: "Eltwise"
  bottom: "cls_score_0"
  bottom: "cls_score_1"
  top: "cls_score"
  eltwise_param {
    operation: SUM
    coeff: 0.5
    coeff: 0.5
  }
}
layer {
  name: "cls_prob"
  type: "Softmax"
  bottom: "cls_score"
  top: "cls_prob"
}
I1004 23:12:27.830003  3754 net.cpp:340] Input 0 -> data
I1004 23:12:27.830034  3754 net.cpp:340] Input 1 -> data_1
I1004 23:12:27.830045  3754 net.cpp:340] Input 2 -> rois
I1004 23:12:27.830066  3754 layer_factory.hpp:74] Creating layer rois_input_2_split
I1004 23:12:27.830081  3754 net.cpp:84] Creating Layer rois_input_2_split
I1004 23:12:27.830088  3754 net.cpp:380] rois_input_2_split <- rois
I1004 23:12:27.830098  3754 net.cpp:338] rois_input_2_split -> rois_input_2_split_0
I1004 23:12:27.830111  3754 net.cpp:338] rois_input_2_split -> rois_input_2_split_1
I1004 23:12:27.830121  3754 net.cpp:113] Setting up rois_input_2_split
I1004 23:12:27.830137  3754 net.cpp:120] Top shape: 1 5 (5)
I1004 23:12:27.830145  3754 net.cpp:120] Top shape: 1 5 (5)
I1004 23:12:27.830152  3754 layer_factory.hpp:74] Creating layer conv1
I1004 23:12:27.830165  3754 net.cpp:84] Creating Layer conv1
I1004 23:12:27.830173  3754 net.cpp:380] conv1 <- data
I1004 23:12:27.830181  3754 net.cpp:338] conv1 -> conv1
I1004 23:12:27.830190  3754 net.cpp:113] Setting up conv1
I1004 23:12:27.893077  3754 net.cpp:120] Top shape: 1 96 57 57 (311904)
I1004 23:12:27.893120  3754 layer_factory.hpp:74] Creating layer relu1
I1004 23:12:27.893136  3754 net.cpp:84] Creating Layer relu1
I1004 23:12:27.893144  3754 net.cpp:380] relu1 <- conv1
I1004 23:12:27.893156  3754 net.cpp:327] relu1 -> conv1 (in-place)
I1004 23:12:27.893167  3754 net.cpp:113] Setting up relu1
I1004 23:12:27.893229  3754 net.cpp:120] Top shape: 1 96 57 57 (311904)
I1004 23:12:27.893239  3754 layer_factory.hpp:74] Creating layer pool1
I1004 23:12:27.893247  3754 layer_factory.cpp:56] CUDNN does not support padding or multiple tops. Using Caffe's own pooling layer.
I1004 23:12:27.893255  3754 net.cpp:84] Creating Layer pool1
I1004 23:12:27.893262  3754 net.cpp:380] pool1 <- conv1
I1004 23:12:27.893271  3754 net.cpp:338] pool1 -> pool1
I1004 23:12:27.893281  3754 net.cpp:113] Setting up pool1
I1004 23:12:27.893296  3754 net.cpp:120] Top shape: 1 96 29 29 (80736)
I1004 23:12:27.893311  3754 layer_factory.hpp:74] Creating layer norm1
I1004 23:12:27.893323  3754 net.cpp:84] Creating Layer norm1
I1004 23:12:27.893331  3754 net.cpp:380] norm1 <- pool1
I1004 23:12:27.893339  3754 net.cpp:338] norm1 -> norm1
I1004 23:12:27.893349  3754 net.cpp:113] Setting up norm1
I1004 23:12:27.893362  3754 net.cpp:120] Top shape: 1 96 29 29 (80736)
I1004 23:12:27.893368  3754 layer_factory.hpp:74] Creating layer conv2
I1004 23:12:27.893378  3754 net.cpp:84] Creating Layer conv2
I1004 23:12:27.893385  3754 net.cpp:380] conv2 <- norm1
I1004 23:12:27.893394  3754 net.cpp:338] conv2 -> conv2
I1004 23:12:27.893405  3754 net.cpp:113] Setting up conv2
I1004 23:12:27.894695  3754 net.cpp:120] Top shape: 1 256 29 29 (215296)
I1004 23:12:27.894716  3754 layer_factory.hpp:74] Creating layer relu2
I1004 23:12:27.894726  3754 net.cpp:84] Creating Layer relu2
I1004 23:12:27.894732  3754 net.cpp:380] relu2 <- conv2
I1004 23:12:27.894742  3754 net.cpp:327] relu2 -> conv2 (in-place)
I1004 23:12:27.894750  3754 net.cpp:113] Setting up relu2
I1004 23:12:27.894806  3754 net.cpp:120] Top shape: 1 256 29 29 (215296)
I1004 23:12:27.894816  3754 layer_factory.hpp:74] Creating layer pool2
I1004 23:12:27.894824  3754 layer_factory.cpp:56] CUDNN does not support padding or multiple tops. Using Caffe's own pooling layer.
I1004 23:12:27.894832  3754 net.cpp:84] Creating Layer pool2
I1004 23:12:27.894839  3754 net.cpp:380] pool2 <- conv2
I1004 23:12:27.894847  3754 net.cpp:338] pool2 -> pool2
I1004 23:12:27.894857  3754 net.cpp:113] Setting up pool2
I1004 23:12:27.894868  3754 net.cpp:120] Top shape: 1 256 15 15 (57600)
I1004 23:12:27.894876  3754 layer_factory.hpp:74] Creating layer norm2
I1004 23:12:27.894886  3754 net.cpp:84] Creating Layer norm2
I1004 23:12:27.894891  3754 net.cpp:380] norm2 <- pool2
I1004 23:12:27.894901  3754 net.cpp:338] norm2 -> norm2
I1004 23:12:27.894909  3754 net.cpp:113] Setting up norm2
I1004 23:12:27.894919  3754 net.cpp:120] Top shape: 1 256 15 15 (57600)
I1004 23:12:27.894927  3754 layer_factory.hpp:74] Creating layer conv3
I1004 23:12:27.894935  3754 net.cpp:84] Creating Layer conv3
I1004 23:12:27.894942  3754 net.cpp:380] conv3 <- norm2
I1004 23:12:27.894950  3754 net.cpp:338] conv3 -> conv3
I1004 23:12:27.894960  3754 net.cpp:113] Setting up conv3
I1004 23:12:27.896877  3754 net.cpp:120] Top shape: 1 384 15 15 (86400)
I1004 23:12:27.896903  3754 layer_factory.hpp:74] Creating layer relu3
I1004 23:12:27.896914  3754 net.cpp:84] Creating Layer relu3
I1004 23:12:27.896920  3754 net.cpp:380] relu3 <- conv3
I1004 23:12:27.896929  3754 net.cpp:327] relu3 -> conv3 (in-place)
I1004 23:12:27.896939  3754 net.cpp:113] Setting up relu3
I1004 23:12:27.896996  3754 net.cpp:120] Top shape: 1 384 15 15 (86400)
I1004 23:12:27.897006  3754 layer_factory.hpp:74] Creating layer conv4
I1004 23:12:27.897016  3754 net.cpp:84] Creating Layer conv4
I1004 23:12:27.897022  3754 net.cpp:380] conv4 <- conv3
I1004 23:12:27.897032  3754 net.cpp:338] conv4 -> conv4
I1004 23:12:27.897042  3754 net.cpp:113] Setting up conv4
I1004 23:12:27.898794  3754 net.cpp:120] Top shape: 1 384 15 15 (86400)
I1004 23:12:27.898818  3754 layer_factory.hpp:74] Creating layer relu4
I1004 23:12:27.898828  3754 net.cpp:84] Creating Layer relu4
I1004 23:12:27.898835  3754 net.cpp:380] relu4 <- conv4
I1004 23:12:27.898844  3754 net.cpp:327] relu4 -> conv4 (in-place)
I1004 23:12:27.898854  3754 net.cpp:113] Setting up relu4
I1004 23:12:27.899046  3754 net.cpp:120] Top shape: 1 384 15 15 (86400)
I1004 23:12:27.899061  3754 layer_factory.hpp:74] Creating layer conv5
I1004 23:12:27.899072  3754 net.cpp:84] Creating Layer conv5
I1004 23:12:27.899080  3754 net.cpp:380] conv5 <- conv4
I1004 23:12:27.899090  3754 net.cpp:338] conv5 -> conv5
I1004 23:12:27.899101  3754 net.cpp:113] Setting up conv5
I1004 23:12:27.900687  3754 net.cpp:120] Top shape: 1 256 15 15 (57600)
I1004 23:12:27.900712  3754 layer_factory.hpp:74] Creating layer relu5
I1004 23:12:27.900723  3754 net.cpp:84] Creating Layer relu5
I1004 23:12:27.900730  3754 net.cpp:380] relu5 <- conv5
I1004 23:12:27.900738  3754 net.cpp:327] relu5 -> conv5 (in-place)
I1004 23:12:27.900748  3754 net.cpp:113] Setting up relu5
I1004 23:12:27.900813  3754 net.cpp:120] Top shape: 1 256 15 15 (57600)
I1004 23:12:27.900825  3754 layer_factory.hpp:74] Creating layer roi_pool5
I1004 23:12:27.900838  3754 net.cpp:84] Creating Layer roi_pool5
I1004 23:12:27.900846  3754 net.cpp:380] roi_pool5 <- conv5
I1004 23:12:27.900853  3754 net.cpp:380] roi_pool5 <- rois_input_2_split_0
I1004 23:12:27.900866  3754 net.cpp:338] roi_pool5 -> pool5
I1004 23:12:27.900876  3754 net.cpp:113] Setting up roi_pool5
I1004 23:12:27.900885  3754 roi_pooling_layer.cpp:30] Spatial scale: 0.0625
I1004 23:12:27.900915  3754 net.cpp:120] Top shape: 1 256 6 6 (9216)
I1004 23:12:27.900926  3754 layer_factory.hpp:74] Creating layer fc6
I1004 23:12:27.900943  3754 net.cpp:84] Creating Layer fc6
I1004 23:12:27.900952  3754 net.cpp:380] fc6 <- pool5
I1004 23:12:27.900961  3754 net.cpp:338] fc6 -> fc6
I1004 23:12:27.900971  3754 net.cpp:113] Setting up fc6
I1004 23:12:27.956807  3754 net.cpp:120] Top shape: 1 4096 (4096)
I1004 23:12:27.956851  3754 layer_factory.hpp:74] Creating layer relu6
I1004 23:12:27.956868  3754 net.cpp:84] Creating Layer relu6
I1004 23:12:27.956876  3754 net.cpp:380] relu6 <- fc6
I1004 23:12:27.956887  3754 net.cpp:327] relu6 -> fc6 (in-place)
I1004 23:12:27.956899  3754 net.cpp:113] Setting up relu6
I1004 23:12:27.956998  3754 net.cpp:120] Top shape: 1 4096 (4096)
I1004 23:12:27.957010  3754 layer_factory.hpp:74] Creating layer drop6
I1004 23:12:27.957026  3754 net.cpp:84] Creating Layer drop6
I1004 23:12:27.957033  3754 net.cpp:380] drop6 <- fc6
I1004 23:12:27.957041  3754 net.cpp:327] drop6 -> fc6 (in-place)
I1004 23:12:27.957051  3754 net.cpp:113] Setting up drop6
I1004 23:12:27.957062  3754 net.cpp:120] Top shape: 1 4096 (4096)
I1004 23:12:27.957068  3754 layer_factory.hpp:74] Creating layer fc7
I1004 23:12:27.957082  3754 net.cpp:84] Creating Layer fc7
I1004 23:12:27.957088  3754 net.cpp:380] fc7 <- fc6
I1004 23:12:27.957098  3754 net.cpp:338] fc7 -> fc7
I1004 23:12:27.957114  3754 net.cpp:113] Setting up fc7
I1004 23:12:27.982071  3754 net.cpp:120] Top shape: 1 4096 (4096)
I1004 23:12:27.982115  3754 layer_factory.hpp:74] Creating layer relu7
I1004 23:12:27.982131  3754 net.cpp:84] Creating Layer relu7
I1004 23:12:27.982138  3754 net.cpp:380] relu7 <- fc7
I1004 23:12:27.982148  3754 net.cpp:327] relu7 -> fc7 (in-place)
I1004 23:12:27.982159  3754 net.cpp:113] Setting up relu7
I1004 23:12:27.982475  3754 net.cpp:120] Top shape: 1 4096 (4096)
I1004 23:12:27.982489  3754 layer_factory.hpp:74] Creating layer drop7
I1004 23:12:27.982501  3754 net.cpp:84] Creating Layer drop7
I1004 23:12:27.982507  3754 net.cpp:380] drop7 <- fc7
I1004 23:12:27.982517  3754 net.cpp:327] drop7 -> fc7 (in-place)
I1004 23:12:27.982527  3754 net.cpp:113] Setting up drop7
I1004 23:12:27.982537  3754 net.cpp:120] Top shape: 1 4096 (4096)
I1004 23:12:27.982543  3754 layer_factory.hpp:74] Creating layer fc7_drop7_0_split
I1004 23:12:27.982553  3754 net.cpp:84] Creating Layer fc7_drop7_0_split
I1004 23:12:27.982558  3754 net.cpp:380] fc7_drop7_0_split <- fc7
I1004 23:12:27.982573  3754 net.cpp:338] fc7_drop7_0_split -> fc7_drop7_0_split_0
I1004 23:12:27.982583  3754 net.cpp:338] fc7_drop7_0_split -> fc7_drop7_0_split_1
I1004 23:12:27.982594  3754 net.cpp:113] Setting up fc7_drop7_0_split
I1004 23:12:27.982604  3754 net.cpp:120] Top shape: 1 4096 (4096)
I1004 23:12:27.982610  3754 net.cpp:120] Top shape: 1 4096 (4096)
I1004 23:12:27.982617  3754 layer_factory.hpp:74] Creating layer da_conv1
I1004 23:12:27.982630  3754 net.cpp:84] Creating Layer da_conv1
I1004 23:12:27.982638  3754 net.cpp:380] da_conv1 <- data_1
I1004 23:12:27.982647  3754 net.cpp:338] da_conv1 -> da_conv1
I1004 23:12:27.982657  3754 net.cpp:113] Setting up da_conv1
I1004 23:12:27.984628  3754 net.cpp:120] Top shape: 1 96 58 58 (322944)
I1004 23:12:27.984647  3754 layer_factory.hpp:74] Creating layer da_relu1
I1004 23:12:27.984658  3754 net.cpp:84] Creating Layer da_relu1
I1004 23:12:27.984664  3754 net.cpp:380] da_relu1 <- da_conv1
I1004 23:12:27.984676  3754 net.cpp:327] da_relu1 -> da_conv1 (in-place)
I1004 23:12:27.984685  3754 net.cpp:113] Setting up da_relu1
I1004 23:12:27.984750  3754 net.cpp:120] Top shape: 1 96 58 58 (322944)
I1004 23:12:27.984762  3754 layer_factory.hpp:74] Creating layer da_pool1
I1004 23:12:27.984773  3754 net.cpp:84] Creating Layer da_pool1
I1004 23:12:27.984781  3754 net.cpp:380] da_pool1 <- da_conv1
I1004 23:12:27.984788  3754 net.cpp:338] da_pool1 -> da_pool1
I1004 23:12:27.984798  3754 net.cpp:113] Setting up da_pool1
I1004 23:12:27.984872  3754 net.cpp:120] Top shape: 1 96 29 29 (80736)
I1004 23:12:27.984886  3754 layer_factory.hpp:74] Creating layer da_norm1
I1004 23:12:27.984897  3754 net.cpp:84] Creating Layer da_norm1
I1004 23:12:27.984905  3754 net.cpp:380] da_norm1 <- da_pool1
I1004 23:12:27.984913  3754 net.cpp:338] da_norm1 -> da_norm1
I1004 23:12:27.984922  3754 net.cpp:113] Setting up da_norm1
I1004 23:12:27.984933  3754 net.cpp:120] Top shape: 1 96 29 29 (80736)
I1004 23:12:27.984941  3754 layer_factory.hpp:74] Creating layer da_conv2
I1004 23:12:27.984949  3754 net.cpp:84] Creating Layer da_conv2
I1004 23:12:27.984956  3754 net.cpp:380] da_conv2 <- da_norm1
I1004 23:12:27.984967  3754 net.cpp:338] da_conv2 -> da_conv2
I1004 23:12:27.984978  3754 net.cpp:113] Setting up da_conv2
I1004 23:12:27.996610  3754 net.cpp:120] Top shape: 1 256 29 29 (215296)
I1004 23:12:27.996634  3754 layer_factory.hpp:74] Creating layer da_relu2
I1004 23:12:27.996647  3754 net.cpp:84] Creating Layer da_relu2
I1004 23:12:27.996654  3754 net.cpp:380] da_relu2 <- da_conv2
I1004 23:12:27.996662  3754 net.cpp:327] da_relu2 -> da_conv2 (in-place)
I1004 23:12:27.996671  3754 net.cpp:113] Setting up da_relu2
I1004 23:12:27.996744  3754 net.cpp:120] Top shape: 1 256 29 29 (215296)
I1004 23:12:27.996757  3754 layer_factory.hpp:74] Creating layer da_pool2
I1004 23:12:27.996767  3754 net.cpp:84] Creating Layer da_pool2
I1004 23:12:27.996773  3754 net.cpp:380] da_pool2 <- da_conv2
I1004 23:12:27.996783  3754 net.cpp:338] da_pool2 -> da_pool2
I1004 23:12:27.996793  3754 net.cpp:113] Setting up da_pool2
I1004 23:12:27.996997  3754 net.cpp:120] Top shape: 1 256 14 14 (50176)
I1004 23:12:27.997012  3754 layer_factory.hpp:74] Creating layer da_norm2
I1004 23:12:27.997025  3754 net.cpp:84] Creating Layer da_norm2
I1004 23:12:27.997032  3754 net.cpp:380] da_norm2 <- da_pool2
I1004 23:12:27.997041  3754 net.cpp:338] da_norm2 -> da_norm2
I1004 23:12:27.997051  3754 net.cpp:113] Setting up da_norm2
I1004 23:12:27.997061  3754 net.cpp:120] Top shape: 1 256 14 14 (50176)
I1004 23:12:27.997068  3754 layer_factory.hpp:74] Creating layer da_conv3
I1004 23:12:27.997077  3754 net.cpp:84] Creating Layer da_conv3
I1004 23:12:27.997084  3754 net.cpp:380] da_conv3 <- da_norm2
I1004 23:12:27.997093  3754 net.cpp:338] da_conv3 -> da_conv3
I1004 23:12:27.997103  3754 net.cpp:113] Setting up da_conv3
I1004 23:12:28.028671  3754 net.cpp:120] Top shape: 1 384 14 14 (75264)
I1004 23:12:28.028693  3754 layer_factory.hpp:74] Creating layer da_relu3
I1004 23:12:28.028710  3754 net.cpp:84] Creating Layer da_relu3
I1004 23:12:28.028718  3754 net.cpp:380] da_relu3 <- da_conv3
I1004 23:12:28.028728  3754 net.cpp:327] da_relu3 -> da_conv3 (in-place)
I1004 23:12:28.028736  3754 net.cpp:113] Setting up da_relu3
I1004 23:12:28.028803  3754 net.cpp:120] Top shape: 1 384 14 14 (75264)
I1004 23:12:28.028815  3754 layer_factory.hpp:74] Creating layer da_conv4
I1004 23:12:28.028828  3754 net.cpp:84] Creating Layer da_conv4
I1004 23:12:28.028836  3754 net.cpp:380] da_conv4 <- da_conv3
I1004 23:12:28.028847  3754 net.cpp:338] da_conv4 -> da_conv4
I1004 23:12:28.028861  3754 net.cpp:113] Setting up da_conv4
I1004 23:12:28.053222  3754 net.cpp:120] Top shape: 1 384 14 14 (75264)
I1004 23:12:28.053243  3754 layer_factory.hpp:74] Creating layer da_relu4
I1004 23:12:28.053253  3754 net.cpp:84] Creating Layer da_relu4
I1004 23:12:28.053261  3754 net.cpp:380] da_relu4 <- da_conv4
I1004 23:12:28.053269  3754 net.cpp:327] da_relu4 -> da_conv4 (in-place)
I1004 23:12:28.053278  3754 net.cpp:113] Setting up da_relu4
I1004 23:12:28.053347  3754 net.cpp:120] Top shape: 1 384 14 14 (75264)
I1004 23:12:28.053362  3754 layer_factory.hpp:74] Creating layer da_conv5
I1004 23:12:28.053374  3754 net.cpp:84] Creating Layer da_conv5
I1004 23:12:28.053385  3754 net.cpp:380] da_conv5 <- da_conv4
I1004 23:12:28.053395  3754 net.cpp:338] da_conv5 -> da_conv5
I1004 23:12:28.053406  3754 net.cpp:113] Setting up da_conv5
I1004 23:12:28.069970  3754 net.cpp:120] Top shape: 1 256 14 14 (50176)
I1004 23:12:28.069989  3754 layer_factory.hpp:74] Creating layer da_relu5
I1004 23:12:28.070000  3754 net.cpp:84] Creating Layer da_relu5
I1004 23:12:28.070008  3754 net.cpp:380] da_relu5 <- da_conv5
I1004 23:12:28.070016  3754 net.cpp:327] da_relu5 -> da_conv5 (in-place)
I1004 23:12:28.070025  3754 net.cpp:113] Setting up da_relu5
I1004 23:12:28.070088  3754 net.cpp:120] Top shape: 1 256 14 14 (50176)
I1004 23:12:28.070101  3754 layer_factory.hpp:74] Creating layer da_roi_pool5
I1004 23:12:28.070111  3754 net.cpp:84] Creating Layer da_roi_pool5
I1004 23:12:28.070117  3754 net.cpp:380] da_roi_pool5 <- da_conv5
I1004 23:12:28.070125  3754 net.cpp:380] da_roi_pool5 <- rois_input_2_split_1
I1004 23:12:28.070137  3754 net.cpp:338] da_roi_pool5 -> da_pool5
I1004 23:12:28.070147  3754 net.cpp:113] Setting up da_roi_pool5
I1004 23:12:28.070159  3754 roi_pooling_layer.cpp:30] Spatial scale: 0.0625
I1004 23:12:28.070180  3754 net.cpp:120] Top shape: 1 256 6 6 (9216)
I1004 23:12:28.070188  3754 layer_factory.hpp:74] Creating layer da_fc6
I1004 23:12:28.070199  3754 net.cpp:84] Creating Layer da_fc6
I1004 23:12:28.070205  3754 net.cpp:380] da_fc6 <- da_pool5
I1004 23:12:28.070220  3754 net.cpp:338] da_fc6 -> da_fc6
I1004 23:12:28.070235  3754 net.cpp:113] Setting up da_fc6
I1004 23:12:29.374150  3754 net.cpp:120] Top shape: 1 4096 (4096)
I1004 23:12:29.374181  3754 layer_factory.hpp:74] Creating layer da_relu6
I1004 23:12:29.374202  3754 net.cpp:84] Creating Layer da_relu6
I1004 23:12:29.374210  3754 net.cpp:380] da_relu6 <- da_fc6
I1004 23:12:29.374222  3754 net.cpp:327] da_relu6 -> da_fc6 (in-place)
I1004 23:12:29.374233  3754 net.cpp:113] Setting up da_relu6
I1004 23:12:29.374533  3754 net.cpp:120] Top shape: 1 4096 (4096)
I1004 23:12:29.374552  3754 layer_factory.hpp:74] Creating layer da_drop6
I1004 23:12:29.374563  3754 net.cpp:84] Creating Layer da_drop6
I1004 23:12:29.374570  3754 net.cpp:380] da_drop6 <- da_fc6
I1004 23:12:29.374582  3754 net.cpp:327] da_drop6 -> da_fc6 (in-place)
I1004 23:12:29.374591  3754 net.cpp:113] Setting up da_drop6
I1004 23:12:29.374601  3754 net.cpp:120] Top shape: 1 4096 (4096)
I1004 23:12:29.374608  3754 layer_factory.hpp:74] Creating layer da_fc7
I1004 23:12:29.374619  3754 net.cpp:84] Creating Layer da_fc7
I1004 23:12:29.374626  3754 net.cpp:380] da_fc7 <- da_fc6
I1004 23:12:29.374635  3754 net.cpp:338] da_fc7 -> da_fc7
I1004 23:12:29.374647  3754 net.cpp:113] Setting up da_fc7
I1004 23:12:29.940925  3754 net.cpp:120] Top shape: 1 4096 (4096)
I1004 23:12:29.940963  3754 layer_factory.hpp:74] Creating layer da_relu7
I1004 23:12:29.940979  3754 net.cpp:84] Creating Layer da_relu7
I1004 23:12:29.940989  3754 net.cpp:380] da_relu7 <- da_fc7
I1004 23:12:29.941001  3754 net.cpp:327] da_relu7 -> da_fc7 (in-place)
I1004 23:12:29.941012  3754 net.cpp:113] Setting up da_relu7
I1004 23:12:29.941103  3754 net.cpp:120] Top shape: 1 4096 (4096)
I1004 23:12:29.941115  3754 layer_factory.hpp:74] Creating layer da_drop7
I1004 23:12:29.941126  3754 net.cpp:84] Creating Layer da_drop7
I1004 23:12:29.941133  3754 net.cpp:380] da_drop7 <- da_fc7
I1004 23:12:29.941144  3754 net.cpp:327] da_drop7 -> da_fc7 (in-place)
I1004 23:12:29.941154  3754 net.cpp:113] Setting up da_drop7
I1004 23:12:29.941164  3754 net.cpp:120] Top shape: 1 4096 (4096)
I1004 23:12:29.941171  3754 layer_factory.hpp:74] Creating layer da_fc7_da_drop7_0_split
I1004 23:12:29.941180  3754 net.cpp:84] Creating Layer da_fc7_da_drop7_0_split
I1004 23:12:29.941187  3754 net.cpp:380] da_fc7_da_drop7_0_split <- da_fc7
I1004 23:12:29.941195  3754 net.cpp:338] da_fc7_da_drop7_0_split -> da_fc7_da_drop7_0_split_0
I1004 23:12:29.941210  3754 net.cpp:338] da_fc7_da_drop7_0_split -> da_fc7_da_drop7_0_split_1
I1004 23:12:29.941225  3754 net.cpp:113] Setting up da_fc7_da_drop7_0_split
I1004 23:12:29.941239  3754 net.cpp:120] Top shape: 1 4096 (4096)
I1004 23:12:29.941248  3754 net.cpp:120] Top shape: 1 4096 (4096)
I1004 23:12:29.941254  3754 layer_factory.hpp:74] Creating layer cls_score
I1004 23:12:29.941265  3754 net.cpp:84] Creating Layer cls_score
I1004 23:12:29.941272  3754 net.cpp:380] cls_score <- fc7_drop7_0_split_0
I1004 23:12:29.941285  3754 net.cpp:338] cls_score -> cls_score_0
I1004 23:12:29.941298  3754 net.cpp:113] Setting up cls_score
I1004 23:12:29.944130  3754 net.cpp:120] Top shape: 1 20 (20)
I1004 23:12:29.944147  3754 layer_factory.hpp:74] Creating layer da_cls_score
I1004 23:12:29.944159  3754 net.cpp:84] Creating Layer da_cls_score
I1004 23:12:29.944169  3754 net.cpp:380] da_cls_score <- da_fc7_da_drop7_0_split_0
I1004 23:12:29.944181  3754 net.cpp:338] da_cls_score -> cls_score_1
I1004 23:12:29.944192  3754 net.cpp:113] Setting up da_cls_score
I1004 23:12:29.947041  3754 net.cpp:120] Top shape: 1 20 (20)
I1004 23:12:29.947057  3754 layer_factory.hpp:74] Creating layer bbox_pred
I1004 23:12:29.947073  3754 net.cpp:84] Creating Layer bbox_pred
I1004 23:12:29.947082  3754 net.cpp:380] bbox_pred <- fc7_drop7_0_split_1
I1004 23:12:29.947091  3754 net.cpp:338] bbox_pred -> bbox_pred_0
I1004 23:12:29.947101  3754 net.cpp:113] Setting up bbox_pred
I1004 23:12:29.958515  3754 net.cpp:120] Top shape: 1 80 (80)
I1004 23:12:29.958546  3754 layer_factory.hpp:74] Creating layer da_bbox_pred
I1004 23:12:29.958559  3754 net.cpp:84] Creating Layer da_bbox_pred
I1004 23:12:29.958566  3754 net.cpp:380] da_bbox_pred <- da_fc7_da_drop7_0_split_1
I1004 23:12:29.958576  3754 net.cpp:338] da_bbox_pred -> bbox_pred_1
I1004 23:12:29.958587  3754 net.cpp:113] Setting up da_bbox_pred
I1004 23:12:29.969802  3754 net.cpp:120] Top shape: 1 80 (80)
I1004 23:12:29.969820  3754 layer_factory.hpp:74] Creating layer sum
I1004 23:12:29.969838  3754 net.cpp:84] Creating Layer sum
I1004 23:12:29.969846  3754 net.cpp:380] sum <- bbox_pred_0
I1004 23:12:29.969853  3754 net.cpp:380] sum <- bbox_pred_1
I1004 23:12:29.969866  3754 net.cpp:338] sum -> bbox_pred
I1004 23:12:29.969876  3754 net.cpp:113] Setting up sum
I1004 23:12:29.969890  3754 net.cpp:120] Top shape: 1 80 (80)
I1004 23:12:29.969897  3754 layer_factory.hpp:74] Creating layer sum
I1004 23:12:29.969907  3754 net.cpp:84] Creating Layer sum
I1004 23:12:29.969913  3754 net.cpp:380] sum <- cls_score_0
I1004 23:12:29.969920  3754 net.cpp:380] sum <- cls_score_1
I1004 23:12:29.969929  3754 net.cpp:338] sum -> cls_score
I1004 23:12:29.969938  3754 net.cpp:113] Setting up sum
I1004 23:12:29.969947  3754 net.cpp:120] Top shape: 1 20 (20)
I1004 23:12:29.969954  3754 layer_factory.hpp:74] Creating layer cls_prob
I1004 23:12:29.969965  3754 net.cpp:84] Creating Layer cls_prob
I1004 23:12:29.969972  3754 net.cpp:380] cls_prob <- cls_score
I1004 23:12:29.969980  3754 net.cpp:338] cls_prob -> cls_prob
I1004 23:12:29.969990  3754 net.cpp:113] Setting up cls_prob
I1004 23:12:29.970069  3754 net.cpp:120] Top shape: 1 20 (20)
I1004 23:12:29.970082  3754 net.cpp:169] cls_prob does not need backward computation.
I1004 23:12:29.970088  3754 net.cpp:169] sum does not need backward computation.
I1004 23:12:29.970094  3754 net.cpp:169] sum does not need backward computation.
I1004 23:12:29.970100  3754 net.cpp:169] da_bbox_pred does not need backward computation.
I1004 23:12:29.970106  3754 net.cpp:169] bbox_pred does not need backward computation.
…
