…
           'MAX_SIZE': 2000,
           'SCALES': [688],
           'SNAPSHOT_INFIX': '',
           'SNAPSHOT_ITERS': 10000,
           'USE_FLIPPED': True,
           'USE_PREFETCH': False}}
WARNING: Logging before InitGoogleLogging() is written to STDERR
I1015 00:07:32.206977 19737 net.cpp:42] Initializing net from parameters: 
name: "CaffeNet"
input: "data"
input: "data_1"
input: "rois"
state {
  phase: TEST
}
input_shape {
  dim: 1
  dim: 3
  dim: 227
  dim: 227
}
input_shape {
  dim: 1
  dim: 3
  dim: 227
  dim: 227
}
input_shape {
  dim: 1
  dim: 5
}
layer {
  name: "conv1"
  type: "Convolution"
  bottom: "data"
  top: "conv1"
  param {
    lr_mult: 1
    decay_mult: 1
  }
  param {
    lr_mult: 2
    decay_mult: 0
  }
  convolution_param {
    num_output: 96
    pad: 5
    kernel_size: 11
    stride: 4
  }
}
layer {
  name: "relu1"
  type: "ReLU"
  bottom: "conv1"
  top: "conv1"
}
layer {
  name: "pool1"
  type: "Pooling"
  bottom: "conv1"
  top: "pool1"
  pooling_param {
    pool: MAX
    kernel_size: 3
    stride: 2
    pad: 1
  }
}
layer {
  name: "norm1"
  type: "LRN"
  bottom: "pool1"
  top: "norm1"
  lrn_param {
    local_size: 5
    alpha: 0.0001
    beta: 0.75
  }
}
layer {
  name: "conv2"
  type: "Convolution"
  bottom: "norm1"
  top: "conv2"
  param {
    lr_mult: 1
    decay_mult: 1
  }
  param {
    lr_mult: 2
    decay_mult: 0
  }
  convolution_param {
    num_output: 256
    pad: 2
    kernel_size: 5
    group: 2
  }
}
layer {
  name: "relu2"
  type: "ReLU"
  bottom: "conv2"
  top: "conv2"
}
layer {
  name: "pool2"
  type: "Pooling"
  bottom: "conv2"
  top: "pool2"
  pooling_param {
    pool: MAX
    kernel_size: 3
    stride: 2
    pad: 1
  }
}
layer {
  name: "norm2"
  type: "LRN"
  bottom: "pool2"
  top: "norm2"
  lrn_param {
    local_size: 5
    alpha: 0.0001
    beta: 0.75
  }
}
layer {
  name: "conv3"
  type: "Convolution"
  bottom: "norm2"
  top: "conv3"
  param {
    lr_mult: 1
    decay_mult: 1
  }
  param {
    lr_mult: 2
    decay_mult: 0
  }
  convolution_param {
    num_output: 384
    pad: 1
    kernel_size: 3
  }
}
layer {
  name: "relu3"
  type: "ReLU"
  bottom: "conv3"
  top: "conv3"
}
layer {
  name: "conv4"
  type: "Convolution"
  bottom: "conv3"
  top: "conv4"
  param {
    lr_mult: 1
    decay_mult: 1
  }
  param {
    lr_mult: 2
    decay_mult: 0
  }
  convolution_param {
    num_output: 384
    pad: 1
    kernel_size: 3
    group: 2
  }
}
layer {
  name: "relu4"
  type: "ReLU"
  bottom: "conv4"
  top: "conv4"
}
layer {
  name: "conv5"
  type: "Convolution"
  bottom: "conv4"
  top: "conv5"
  param {
    lr_mult: 1
    decay_mult: 1
  }
  param {
    lr_mult: 2
    decay_mult: 0
  }
  convolution_param {
    num_output: 256
    pad: 1
    kernel_size: 3
    group: 2
  }
}
layer {
  name: "relu5"
  type: "ReLU"
  bottom: "conv5"
  top: "conv5"
}
layer {
  name: "roi_pool5"
  type: "ROIPooling"
  bottom: "conv5"
  bottom: "rois"
  top: "pool5"
  roi_pooling_param {
    pooled_h: 6
    pooled_w: 6
    spatial_scale: 0.0625
  }
}
layer {
  name: "fc6"
  type: "InnerProduct"
  bottom: "pool5"
  top: "fc6"
  param {
    lr_mult: 1
    decay_mult: 1
  }
  param {
    lr_mult: 2
    decay_mult: 0
  }
  inner_product_param {
    num_output: 4096
  }
}
layer {
  name: "relu6"
  type: "ReLU"
  bottom: "fc6"
  top: "fc6"
}
layer {
  name: "drop6"
  type: "Dropout"
  bottom: "fc6"
  top: "fc6"
  dropout_param {
    dropout_ratio: 0.5
  }
}
layer {
  name: "fc7"
  type: "InnerProduct"
  bottom: "fc6"
  top: "fc7"
  param {
    lr_mult: 1
    decay_mult: 1
  }
  param {
    lr_mult: 2
    decay_mult: 0
  }
  inner_product_param {
    num_output: 4096
  }
}
layer {
  name: "relu7"
  type: "ReLU"
  bottom: "fc7"
  top: "fc7"
}
layer {
  name: "drop7"
  type: "Dropout"
  bottom: "fc7"
  top: "fc7"
  dropout_param {
    dropout_ratio: 0.5
  }
}
layer {
  name: "da_conv1"
  type: "Convolution"
  bottom: "data_1"
  top: "da_conv1"
  param {
    lr_mult: 1
    decay_mult: 1
  }
  param {
    lr_mult: 2
    decay_mult: 0
  }
  convolution_param {
    num_output: 96
    pad: 7
    kernel_size: 11
    stride: 4
    weight_filler {
      type: "gaussian"
      std: 0.01
    }
    bias_filler {
      type: "constant"
      value: 0
    }
  }
}
layer {
  name: "da_relu1"
  type: "ReLU"
  bottom: "da_conv1"
  top: "da_conv1"
}
layer {
  name: "da_pool1"
  type: "Pooling"
  bottom: "da_conv1"
  top: "da_pool1"
  pooling_param {
    pool: MAX
    kernel_size: 3
    stride: 2
    pad: 0
  }
}
layer {
  name: "da_norm1"
  type: "LRN"
  bottom: "da_pool1"
  top: "da_norm1"
  lrn_param {
    local_size: 5
    alpha: 0.0001
    beta: 0.75
  }
}
layer {
  name: "da_conv2"
  type: "Convolution"
  bottom: "da_norm1"
  top: "da_conv2"
  param {
    lr_mult: 1
    decay_mult: 1
  }
  param {
    lr_mult: 2
    decay_mult: 0
  }
  convolution_param {
    num_output: 256
    pad: 2
    kernel_size: 5
    group: 2
    stride: 1
    weight_filler {
      type: "gaussian"
      std: 0.01
    }
    bias_filler {
      type: "constant"
      value: 1
    }
  }
}
layer {
  name: "da_relu2"
  type: "ReLU"
  bottom: "da_conv2"
  top: "da_conv2"
}
layer {
  name: "da_pool2"
  type: "Pooling"
  bottom: "da_conv2"
  top: "da_pool2"
  pooling_param {
    pool: MAX
    kernel_size: 3
    stride: 2
    pad: 0
  }
}
layer {
  name: "da_norm2"
  type: "LRN"
  bottom: "da_pool2"
  top: "da_norm2"
  lrn_param {
    local_size: 5
    alpha: 0.0001
    beta: 0.75
  }
}
layer {
  name: "da_conv3"
  type: "Convolution"
  bottom: "da_norm2"
  top: "da_conv3"
  param {
    lr_mult: 1
    decay_mult: 1
  }
  param {
    lr_mult: 2
    decay_mult: 0
  }
  convolution_param {
    num_output: 384
    pad: 1
    kernel_size: 3
    stride: 1
    weight_filler {
      type: "gaussian"
      std: 0.01
    }
    bias_filler {
      type: "constant"
      value: 0
    }
  }
}
layer {
  name: "da_relu3"
  type: "ReLU"
  bottom: "da_conv3"
  top: "da_conv3"
}
layer {
  name: "da_conv4"
  type: "Convolution"
  bottom: "da_conv3"
  top: "da_conv4"
  param {
    lr_mult: 1
    decay_mult: 1
  }
  param {
    lr_mult: 2
    decay_mult: 0
  }
  convolution_param {
    num_output: 384
    pad: 1
    kernel_size: 3
    group: 2
    stride: 1
    weight_filler {
      type: "gaussian"
      std: 0.01
    }
    bias_filler {
      type: "constant"
      value: 1
    }
  }
}
layer {
  name: "da_relu4"
  type: "ReLU"
  bottom: "da_conv4"
  top: "da_conv4"
}
layer {
  name: "da_conv5"
  type: "Convolution"
  bottom: "da_conv4"
  top: "da_conv5"
  param {
    lr_mult: 1
    decay_mult: 1
  }
  param {
    lr_mult: 2
    decay_mult: 0
  }
  convolution_param {
    num_output: 256
    pad: 1
    kernel_size: 3
    group: 2
    stride: 1
    weight_filler {
      type: "gaussian"
      std: 0.01
    }
    bias_filler {
      type: "constant"
      value: 1
    }
  }
}
layer {
  name: "da_relu5"
  type: "ReLU"
  bottom: "da_conv5"
  top: "da_conv5"
}
layer {
  name: "da_roi_pool5"
  type: "ROIPooling"
  bottom: "da_conv5"
  bottom: "rois"
  top: "da_pool5"
  roi_pooling_param {
    pooled_h: 6
    pooled_w: 6
    spatial_scale: 0.0625
  }
}
layer {
  name: "da_fc6"
  type: "InnerProduct"
  bottom: "da_pool5"
  top: "da_fc6"
  param {
    lr_mult: 1
    decay_mult: 1
  }
  param {
    lr_mult: 2
    decay_mult: 0
  }
  inner_product_param {
    num_output: 4096
    weight_filler {
      type: "gaussian"
      std: 0.005
    }
    bias_filler {
      type: "constant"
      value: 1
    }
  }
}
layer {
  name: "da_relu6"
  type: "ReLU"
  bottom: "da_fc6"
  top: "da_fc6"
}
layer {
  name: "da_drop6"
  type: "Dropout"
  bottom: "da_fc6"
  top: "da_fc6"
  dropout_param {
    dropout_ratio: 0.5
  }
}
layer {
  name: "da_fc7"
  type: "InnerProduct"
  bottom: "da_fc6"
  top: "da_fc7"
  param {
    lr_mult: 1
    decay_mult: 1
  }
  param {
    lr_mult: 2
    decay_mult: 0
  }
  inner_product_param {
    num_output: 4096
    weight_filler {
      type: "gaussian"
      std: 0.005
    }
    bias_filler {
      type: "constant"
      value: 1
    }
  }
}
layer {
  name: "da_relu7"
  type: "ReLU"
  bottom: "da_fc7"
  top: "da_fc7"
}
layer {
  name: "da_drop7"
  type: "Dropout"
  bottom: "da_fc7"
  top: "da_fc7"
  dropout_param {
    dropout_ratio: 0.5
  }
}
layer {
  name: "cls_score"
  type: "InnerProduct"
  bottom: "fc7"
  top: "cls_score_0"
  param {
    lr_mult: 1
    decay_mult: 1
  }
  param {
    lr_mult: 2
    decay_mult: 0
  }
  inner_product_param {
    num_output: 20
    weight_filler {
      type: "gaussian"
      std: 0.01
    }
    bias_filler {
      type: "constant"
      value: 0
    }
  }
}
layer {
  name: "da_cls_score"
  type: "InnerProduct"
  bottom: "da_fc7"
  top: "cls_score_1"
  param {
    lr_mult: 1
    decay_mult: 1
  }
  param {
    lr_mult: 2
    decay_mult: 0
  }
  inner_product_param {
    num_output: 20
    weight_filler {
      type: "gaussian"
      std: 0.01
    }
    bias_filler {
      type: "constant"
      value: 0
    }
  }
}
layer {
  name: "bbox_pred"
  type: "InnerProduct"
  bottom: "fc7"
  top: "bbox_pred_0"
  param {
    lr_mult: 1
    decay_mult: 1
  }
  param {
    lr_mult: 2
    decay_mult: 0
  }
  inner_product_param {
    num_output: 80
    weight_filler {
      type: "gaussian"
      std: 0.001
    }
    bias_filler {
      type: "constant"
      value: 0
    }
  }
}
layer {
  name: "da_bbox_pred"
  type: "InnerProduct"
  bottom: "da_fc7"
  top: "bbox_pred_1"
  param {
    lr_mult: 1
    decay_mult: 1
  }
  param {
    lr_mult: 2
    decay_mult: 0
  }
  inner_product_param {
    num_output: 80
    weight_filler {
      type: "gaussian"
      std: 0.001
    }
    bias_filler {
      type: "constant"
      value: 0
    }
  }
}
layer {
  name: "sum"
  type: "Eltwise"
  bottom: "bbox_pred_0"
  bottom: "bbox_pred_1"
  top: "bbox_pred"
  eltwise_param {
    operation: SUM
    coeff: 0.5
    coeff: 0.5
  }
}
layer {
  name: "sum"
  type: "Eltwise"
  bottom: "cls_score_0"
  bottom: "cls_score_1"
  top: "cls_score"
  eltwise_param {
    operation: SUM
    coeff: 0.5
    coeff: 0.5
  }
}
layer {
  name: "cls_prob"
  type: "Softmax"
  bottom: "cls_score"
  top: "cls_prob"
}
I1015 00:07:32.207239 19737 net.cpp:340] Input 0 -> data
I1015 00:07:32.207270 19737 net.cpp:340] Input 1 -> data_1
I1015 00:07:32.207280 19737 net.cpp:340] Input 2 -> rois
I1015 00:07:32.207303 19737 layer_factory.hpp:74] Creating layer rois_input_2_split
I1015 00:07:32.207317 19737 net.cpp:84] Creating Layer rois_input_2_split
I1015 00:07:32.207324 19737 net.cpp:380] rois_input_2_split <- rois
I1015 00:07:32.207334 19737 net.cpp:338] rois_input_2_split -> rois_input_2_split_0
I1015 00:07:32.207345 19737 net.cpp:338] rois_input_2_split -> rois_input_2_split_1
I1015 00:07:32.207355 19737 net.cpp:113] Setting up rois_input_2_split
I1015 00:07:32.207372 19737 net.cpp:120] Top shape: 1 5 (5)
I1015 00:07:32.207381 19737 net.cpp:120] Top shape: 1 5 (5)
I1015 00:07:32.207388 19737 layer_factory.hpp:74] Creating layer conv1
I1015 00:07:32.207401 19737 net.cpp:84] Creating Layer conv1
I1015 00:07:32.207407 19737 net.cpp:380] conv1 <- data
I1015 00:07:32.207417 19737 net.cpp:338] conv1 -> conv1
I1015 00:07:32.207427 19737 net.cpp:113] Setting up conv1
I1015 00:07:32.266036 19737 net.cpp:120] Top shape: 1 96 57 57 (311904)
I1015 00:07:32.266077 19737 layer_factory.hpp:74] Creating layer relu1
I1015 00:07:32.266094 19737 net.cpp:84] Creating Layer relu1
I1015 00:07:32.266103 19737 net.cpp:380] relu1 <- conv1
I1015 00:07:32.266113 19737 net.cpp:327] relu1 -> conv1 (in-place)
I1015 00:07:32.266124 19737 net.cpp:113] Setting up relu1
I1015 00:07:32.266188 19737 net.cpp:120] Top shape: 1 96 57 57 (311904)
I1015 00:07:32.266201 19737 layer_factory.hpp:74] Creating layer pool1
I1015 00:07:32.266209 19737 layer_factory.cpp:56] CUDNN does not support padding or multiple tops. Using Caffe's own pooling layer.
I1015 00:07:32.266218 19737 net.cpp:84] Creating Layer pool1
I1015 00:07:32.266225 19737 net.cpp:380] pool1 <- conv1
I1015 00:07:32.266234 19737 net.cpp:338] pool1 -> pool1
I1015 00:07:32.266244 19737 net.cpp:113] Setting up pool1
I1015 00:07:32.266260 19737 net.cpp:120] Top shape: 1 96 29 29 (80736)
I1015 00:07:32.266268 19737 layer_factory.hpp:74] Creating layer norm1
I1015 00:07:32.266281 19737 net.cpp:84] Creating Layer norm1
I1015 00:07:32.266289 19737 net.cpp:380] norm1 <- pool1
I1015 00:07:32.266297 19737 net.cpp:338] norm1 -> norm1
I1015 00:07:32.266307 19737 net.cpp:113] Setting up norm1
I1015 00:07:32.266319 19737 net.cpp:120] Top shape: 1 96 29 29 (80736)
I1015 00:07:32.266329 19737 layer_factory.hpp:74] Creating layer conv2
I1015 00:07:32.266340 19737 net.cpp:84] Creating Layer conv2
I1015 00:07:32.266345 19737 net.cpp:380] conv2 <- norm1
I1015 00:07:32.266355 19737 net.cpp:338] conv2 -> conv2
I1015 00:07:32.266366 19737 net.cpp:113] Setting up conv2
I1015 00:07:32.267249 19737 net.cpp:120] Top shape: 1 256 29 29 (215296)
I1015 00:07:32.267271 19737 layer_factory.hpp:74] Creating layer relu2
I1015 00:07:32.267283 19737 net.cpp:84] Creating Layer relu2
I1015 00:07:32.267290 19737 net.cpp:380] relu2 <- conv2
I1015 00:07:32.267299 19737 net.cpp:327] relu2 -> conv2 (in-place)
I1015 00:07:32.267308 19737 net.cpp:113] Setting up relu2
I1015 00:07:32.267364 19737 net.cpp:120] Top shape: 1 256 29 29 (215296)
I1015 00:07:32.267375 19737 layer_factory.hpp:74] Creating layer pool2
I1015 00:07:32.267382 19737 layer_factory.cpp:56] CUDNN does not support padding or multiple tops. Using Caffe's own pooling layer.
I1015 00:07:32.267391 19737 net.cpp:84] Creating Layer pool2
I1015 00:07:32.267397 19737 net.cpp:380] pool2 <- conv2
I1015 00:07:32.267406 19737 net.cpp:338] pool2 -> pool2
I1015 00:07:32.267416 19737 net.cpp:113] Setting up pool2
I1015 00:07:32.267427 19737 net.cpp:120] Top shape: 1 256 15 15 (57600)
I1015 00:07:32.267436 19737 layer_factory.hpp:74] Creating layer norm2
I1015 00:07:32.267446 19737 net.cpp:84] Creating Layer norm2
I1015 00:07:32.267453 19737 net.cpp:380] norm2 <- pool2
I1015 00:07:32.267462 19737 net.cpp:338] norm2 -> norm2
I1015 00:07:32.267470 19737 net.cpp:113] Setting up norm2
I1015 00:07:32.267480 19737 net.cpp:120] Top shape: 1 256 15 15 (57600)
I1015 00:07:32.267488 19737 layer_factory.hpp:74] Creating layer conv3
I1015 00:07:32.267496 19737 net.cpp:84] Creating Layer conv3
I1015 00:07:32.267503 19737 net.cpp:380] conv3 <- norm2
I1015 00:07:32.267511 19737 net.cpp:338] conv3 -> conv3
I1015 00:07:32.267520 19737 net.cpp:113] Setting up conv3
I1015 00:07:32.269395 19737 net.cpp:120] Top shape: 1 384 15 15 (86400)
I1015 00:07:32.269423 19737 layer_factory.hpp:74] Creating layer relu3
I1015 00:07:32.269433 19737 net.cpp:84] Creating Layer relu3
I1015 00:07:32.269441 19737 net.cpp:380] relu3 <- conv3
I1015 00:07:32.269450 19737 net.cpp:327] relu3 -> conv3 (in-place)
I1015 00:07:32.269459 19737 net.cpp:113] Setting up relu3
I1015 00:07:32.269515 19737 net.cpp:120] Top shape: 1 384 15 15 (86400)
I1015 00:07:32.269526 19737 layer_factory.hpp:74] Creating layer conv4
I1015 00:07:32.269537 19737 net.cpp:84] Creating Layer conv4
I1015 00:07:32.269543 19737 net.cpp:380] conv4 <- conv3
I1015 00:07:32.269553 19737 net.cpp:338] conv4 -> conv4
I1015 00:07:32.269563 19737 net.cpp:113] Setting up conv4
I1015 00:07:32.271605 19737 net.cpp:120] Top shape: 1 384 15 15 (86400)
I1015 00:07:32.271626 19737 layer_factory.hpp:74] Creating layer relu4
I1015 00:07:32.271637 19737 net.cpp:84] Creating Layer relu4
I1015 00:07:32.271644 19737 net.cpp:380] relu4 <- conv4
I1015 00:07:32.271653 19737 net.cpp:327] relu4 -> conv4 (in-place)
I1015 00:07:32.271663 19737 net.cpp:113] Setting up relu4
I1015 00:07:32.271853 19737 net.cpp:120] Top shape: 1 384 15 15 (86400)
I1015 00:07:32.271868 19737 layer_factory.hpp:74] Creating layer conv5
I1015 00:07:32.271879 19737 net.cpp:84] Creating Layer conv5
I1015 00:07:32.271886 19737 net.cpp:380] conv5 <- conv4
I1015 00:07:32.271896 19737 net.cpp:338] conv5 -> conv5
I1015 00:07:32.271906 19737 net.cpp:113] Setting up conv5
I1015 00:07:32.273511 19737 net.cpp:120] Top shape: 1 256 15 15 (57600)
I1015 00:07:32.273536 19737 layer_factory.hpp:74] Creating layer relu5
I1015 00:07:32.273550 19737 net.cpp:84] Creating Layer relu5
I1015 00:07:32.273557 19737 net.cpp:380] relu5 <- conv5
I1015 00:07:32.273566 19737 net.cpp:327] relu5 -> conv5 (in-place)
I1015 00:07:32.273576 19737 net.cpp:113] Setting up relu5
I1015 00:07:32.273641 19737 net.cpp:120] Top shape: 1 256 15 15 (57600)
I1015 00:07:32.273653 19737 layer_factory.hpp:74] Creating layer roi_pool5
I1015 00:07:32.273669 19737 net.cpp:84] Creating Layer roi_pool5
I1015 00:07:32.273679 19737 net.cpp:380] roi_pool5 <- conv5
I1015 00:07:32.273686 19737 net.cpp:380] roi_pool5 <- rois_input_2_split_0
I1015 00:07:32.273695 19737 net.cpp:338] roi_pool5 -> pool5
I1015 00:07:32.273705 19737 net.cpp:113] Setting up roi_pool5
I1015 00:07:32.273715 19737 roi_pooling_layer.cpp:30] Spatial scale: 0.0625
I1015 00:07:32.273741 19737 net.cpp:120] Top shape: 1 256 6 6 (9216)
I1015 00:07:32.273748 19737 layer_factory.hpp:74] Creating layer fc6
I1015 00:07:32.273763 19737 net.cpp:84] Creating Layer fc6
I1015 00:07:32.273772 19737 net.cpp:380] fc6 <- pool5
I1015 00:07:32.273782 19737 net.cpp:338] fc6 -> fc6
I1015 00:07:32.273792 19737 net.cpp:113] Setting up fc6
I1015 00:07:32.329083 19737 net.cpp:120] Top shape: 1 4096 (4096)
I1015 00:07:32.329125 19737 layer_factory.hpp:74] Creating layer relu6
I1015 00:07:32.329141 19737 net.cpp:84] Creating Layer relu6
I1015 00:07:32.329149 19737 net.cpp:380] relu6 <- fc6
I1015 00:07:32.329160 19737 net.cpp:327] relu6 -> fc6 (in-place)
I1015 00:07:32.329174 19737 net.cpp:113] Setting up relu6
I1015 00:07:32.329273 19737 net.cpp:120] Top shape: 1 4096 (4096)
I1015 00:07:32.329285 19737 layer_factory.hpp:74] Creating layer drop6
I1015 00:07:32.329300 19737 net.cpp:84] Creating Layer drop6
I1015 00:07:32.329308 19737 net.cpp:380] drop6 <- fc6
I1015 00:07:32.329320 19737 net.cpp:327] drop6 -> fc6 (in-place)
I1015 00:07:32.329334 19737 net.cpp:113] Setting up drop6
I1015 00:07:32.329344 19737 net.cpp:120] Top shape: 1 4096 (4096)
I1015 00:07:32.329354 19737 layer_factory.hpp:74] Creating layer fc7
I1015 00:07:32.329365 19737 net.cpp:84] Creating Layer fc7
I1015 00:07:32.329370 19737 net.cpp:380] fc7 <- fc6
I1015 00:07:32.329381 19737 net.cpp:338] fc7 -> fc7
I1015 00:07:32.329396 19737 net.cpp:113] Setting up fc7
I1015 00:07:32.354331 19737 net.cpp:120] Top shape: 1 4096 (4096)
I1015 00:07:32.354377 19737 layer_factory.hpp:74] Creating layer relu7
I1015 00:07:32.354400 19737 net.cpp:84] Creating Layer relu7
I1015 00:07:32.354409 19737 net.cpp:380] relu7 <- fc7
I1015 00:07:32.354420 19737 net.cpp:327] relu7 -> fc7 (in-place)
I1015 00:07:32.354432 19737 net.cpp:113] Setting up relu7
I1015 00:07:32.354743 19737 net.cpp:120] Top shape: 1 4096 (4096)
I1015 00:07:32.354758 19737 layer_factory.hpp:74] Creating layer drop7
I1015 00:07:32.354769 19737 net.cpp:84] Creating Layer drop7
I1015 00:07:32.354776 19737 net.cpp:380] drop7 <- fc7
I1015 00:07:32.354785 19737 net.cpp:327] drop7 -> fc7 (in-place)
I1015 00:07:32.354795 19737 net.cpp:113] Setting up drop7
I1015 00:07:32.354805 19737 net.cpp:120] Top shape: 1 4096 (4096)
I1015 00:07:32.354812 19737 layer_factory.hpp:74] Creating layer fc7_drop7_0_split
I1015 00:07:32.354825 19737 net.cpp:84] Creating Layer fc7_drop7_0_split
I1015 00:07:32.354831 19737 net.cpp:380] fc7_drop7_0_split <- fc7
I1015 00:07:32.354840 19737 net.cpp:338] fc7_drop7_0_split -> fc7_drop7_0_split_0
I1015 00:07:32.354851 19737 net.cpp:338] fc7_drop7_0_split -> fc7_drop7_0_split_1
I1015 00:07:32.354861 19737 net.cpp:113] Setting up fc7_drop7_0_split
I1015 00:07:32.354872 19737 net.cpp:120] Top shape: 1 4096 (4096)
I1015 00:07:32.354881 19737 net.cpp:120] Top shape: 1 4096 (4096)
I1015 00:07:32.354887 19737 layer_factory.hpp:74] Creating layer da_conv1
I1015 00:07:32.354898 19737 net.cpp:84] Creating Layer da_conv1
I1015 00:07:32.354909 19737 net.cpp:380] da_conv1 <- data_1
I1015 00:07:32.354921 19737 net.cpp:338] da_conv1 -> da_conv1
I1015 00:07:32.354935 19737 net.cpp:113] Setting up da_conv1
I1015 00:07:32.356912 19737 net.cpp:120] Top shape: 1 96 58 58 (322944)
I1015 00:07:32.356932 19737 layer_factory.hpp:74] Creating layer da_relu1
I1015 00:07:32.356947 19737 net.cpp:84] Creating Layer da_relu1
I1015 00:07:32.356956 19737 net.cpp:380] da_relu1 <- da_conv1
I1015 00:07:32.356966 19737 net.cpp:327] da_relu1 -> da_conv1 (in-place)
I1015 00:07:32.356976 19737 net.cpp:113] Setting up da_relu1
I1015 00:07:32.357040 19737 net.cpp:120] Top shape: 1 96 58 58 (322944)
I1015 00:07:32.357053 19737 layer_factory.hpp:74] Creating layer da_pool1
I1015 00:07:32.357064 19737 net.cpp:84] Creating Layer da_pool1
I1015 00:07:32.357070 19737 net.cpp:380] da_pool1 <- da_conv1
I1015 00:07:32.357079 19737 net.cpp:338] da_pool1 -> da_pool1
I1015 00:07:32.357089 19737 net.cpp:113] Setting up da_pool1
I1015 00:07:32.357164 19737 net.cpp:120] Top shape: 1 96 29 29 (80736)
I1015 00:07:32.357177 19737 layer_factory.hpp:74] Creating layer da_norm1
I1015 00:07:32.357187 19737 net.cpp:84] Creating Layer da_norm1
I1015 00:07:32.357194 19737 net.cpp:380] da_norm1 <- da_pool1
I1015 00:07:32.357203 19737 net.cpp:338] da_norm1 -> da_norm1
I1015 00:07:32.357213 19737 net.cpp:113] Setting up da_norm1
I1015 00:07:32.357223 19737 net.cpp:120] Top shape: 1 96 29 29 (80736)
I1015 00:07:32.357229 19737 layer_factory.hpp:74] Creating layer da_conv2
I1015 00:07:32.357242 19737 net.cpp:84] Creating Layer da_conv2
I1015 00:07:32.357251 19737 net.cpp:380] da_conv2 <- da_norm1
I1015 00:07:32.357260 19737 net.cpp:338] da_conv2 -> da_conv2
I1015 00:07:32.357270 19737 net.cpp:113] Setting up da_conv2
I1015 00:07:32.368950 19737 net.cpp:120] Top shape: 1 256 29 29 (215296)
I1015 00:07:32.368978 19737 layer_factory.hpp:74] Creating layer da_relu2
I1015 00:07:32.368989 19737 net.cpp:84] Creating Layer da_relu2
I1015 00:07:32.368996 19737 net.cpp:380] da_relu2 <- da_conv2
I1015 00:07:32.369007 19737 net.cpp:327] da_relu2 -> da_conv2 (in-place)
I1015 00:07:32.369016 19737 net.cpp:113] Setting up da_relu2
I1015 00:07:32.369086 19737 net.cpp:120] Top shape: 1 256 29 29 (215296)
I1015 00:07:32.369098 19737 layer_factory.hpp:74] Creating layer da_pool2
I1015 00:07:32.369108 19737 net.cpp:84] Creating Layer da_pool2
I1015 00:07:32.369115 19737 net.cpp:380] da_pool2 <- da_conv2
I1015 00:07:32.369124 19737 net.cpp:338] da_pool2 -> da_pool2
I1015 00:07:32.369133 19737 net.cpp:113] Setting up da_pool2
I1015 00:07:32.369338 19737 net.cpp:120] Top shape: 1 256 14 14 (50176)
I1015 00:07:32.369354 19737 layer_factory.hpp:74] Creating layer da_norm2
I1015 00:07:32.369365 19737 net.cpp:84] Creating Layer da_norm2
I1015 00:07:32.369374 19737 net.cpp:380] da_norm2 <- da_pool2
I1015 00:07:32.369382 19737 net.cpp:338] da_norm2 -> da_norm2
I1015 00:07:32.369392 19737 net.cpp:113] Setting up da_norm2
I1015 00:07:32.369405 19737 net.cpp:120] Top shape: 1 256 14 14 (50176)
I1015 00:07:32.369412 19737 layer_factory.hpp:74] Creating layer da_conv3
I1015 00:07:32.369422 19737 net.cpp:84] Creating Layer da_conv3
I1015 00:07:32.369428 19737 net.cpp:380] da_conv3 <- da_norm2
I1015 00:07:32.369442 19737 net.cpp:338] da_conv3 -> da_conv3
I1015 00:07:32.369455 19737 net.cpp:113] Setting up da_conv3
I1015 00:07:32.401079 19737 net.cpp:120] Top shape: 1 384 14 14 (75264)
I1015 00:07:32.401101 19737 layer_factory.hpp:74] Creating layer da_relu3
I1015 00:07:32.401118 19737 net.cpp:84] Creating Layer da_relu3
I1015 00:07:32.401124 19737 net.cpp:380] da_relu3 <- da_conv3
I1015 00:07:32.401134 19737 net.cpp:327] da_relu3 -> da_conv3 (in-place)
I1015 00:07:32.401142 19737 net.cpp:113] Setting up da_relu3
I1015 00:07:32.401211 19737 net.cpp:120] Top shape: 1 384 14 14 (75264)
I1015 00:07:32.401223 19737 layer_factory.hpp:74] Creating layer da_conv4
I1015 00:07:32.401237 19737 net.cpp:84] Creating Layer da_conv4
I1015 00:07:32.401243 19737 net.cpp:380] da_conv4 <- da_conv3
I1015 00:07:32.401255 19737 net.cpp:338] da_conv4 -> da_conv4
I1015 00:07:32.401268 19737 net.cpp:113] Setting up da_conv4
I1015 00:07:32.425730 19737 net.cpp:120] Top shape: 1 384 14 14 (75264)
I1015 00:07:32.425750 19737 layer_factory.hpp:74] Creating layer da_relu4
I1015 00:07:32.425760 19737 net.cpp:84] Creating Layer da_relu4
I1015 00:07:32.425767 19737 net.cpp:380] da_relu4 <- da_conv4
I1015 00:07:32.425779 19737 net.cpp:327] da_relu4 -> da_conv4 (in-place)
I1015 00:07:32.425789 19737 net.cpp:113] Setting up da_relu4
I1015 00:07:32.425858 19737 net.cpp:120] Top shape: 1 384 14 14 (75264)
I1015 00:07:32.425869 19737 layer_factory.hpp:74] Creating layer da_conv5
I1015 00:07:32.425884 19737 net.cpp:84] Creating Layer da_conv5
I1015 00:07:32.425890 19737 net.cpp:380] da_conv5 <- da_conv4
I1015 00:07:32.425899 19737 net.cpp:338] da_conv5 -> da_conv5
I1015 00:07:32.425910 19737 net.cpp:113] Setting up da_conv5
I1015 00:07:32.442448 19737 net.cpp:120] Top shape: 1 256 14 14 (50176)
I1015 00:07:32.442468 19737 layer_factory.hpp:74] Creating layer da_relu5
I1015 00:07:32.442478 19737 net.cpp:84] Creating Layer da_relu5
I1015 00:07:32.442486 19737 net.cpp:380] da_relu5 <- da_conv5
I1015 00:07:32.442494 19737 net.cpp:327] da_relu5 -> da_conv5 (in-place)
I1015 00:07:32.442503 19737 net.cpp:113] Setting up da_relu5
I1015 00:07:32.442569 19737 net.cpp:120] Top shape: 1 256 14 14 (50176)
I1015 00:07:32.442580 19737 layer_factory.hpp:74] Creating layer da_roi_pool5
I1015 00:07:32.442591 19737 net.cpp:84] Creating Layer da_roi_pool5
I1015 00:07:32.442600 19737 net.cpp:380] da_roi_pool5 <- da_conv5
I1015 00:07:32.442608 19737 net.cpp:380] da_roi_pool5 <- rois_input_2_split_1
I1015 00:07:32.442618 19737 net.cpp:338] da_roi_pool5 -> da_pool5
I1015 00:07:32.442628 19737 net.cpp:113] Setting up da_roi_pool5
I1015 00:07:32.442638 19737 roi_pooling_layer.cpp:30] Spatial scale: 0.0625
I1015 00:07:32.442661 19737 net.cpp:120] Top shape: 1 256 6 6 (9216)
I1015 00:07:32.442667 19737 layer_factory.hpp:74] Creating layer da_fc6
I1015 00:07:32.442677 19737 net.cpp:84] Creating Layer da_fc6
I1015 00:07:32.442687 19737 net.cpp:380] da_fc6 <- da_pool5
I1015 00:07:32.442703 19737 net.cpp:338] da_fc6 -> da_fc6
I1015 00:07:32.442715 19737 net.cpp:113] Setting up da_fc6
I1015 00:07:33.766160 19737 net.cpp:120] Top shape: 1 4096 (4096)
I1015 00:07:33.766203 19737 layer_factory.hpp:74] Creating layer da_relu6
I1015 00:07:33.766218 19737 net.cpp:84] Creating Layer da_relu6
I1015 00:07:33.766227 19737 net.cpp:380] da_relu6 <- da_fc6
I1015 00:07:33.766238 19737 net.cpp:327] da_relu6 -> da_fc6 (in-place)
I1015 00:07:33.766249 19737 net.cpp:113] Setting up da_relu6
I1015 00:07:33.766558 19737 net.cpp:120] Top shape: 1 4096 (4096)
I1015 00:07:33.766574 19737 layer_factory.hpp:74] Creating layer da_drop6
I1015 00:07:33.766585 19737 net.cpp:84] Creating Layer da_drop6
I1015 00:07:33.766592 19737 net.cpp:380] da_drop6 <- da_fc6
I1015 00:07:33.766603 19737 net.cpp:327] da_drop6 -> da_fc6 (in-place)
I1015 00:07:33.766613 19737 net.cpp:113] Setting up da_drop6
I1015 00:07:33.766628 19737 net.cpp:120] Top shape: 1 4096 (4096)
I1015 00:07:33.766638 19737 layer_factory.hpp:74] Creating layer da_fc7
I1015 00:07:33.766649 19737 net.cpp:84] Creating Layer da_fc7
I1015 00:07:33.766656 19737 net.cpp:380] da_fc7 <- da_fc6
I1015 00:07:33.766669 19737 net.cpp:338] da_fc7 -> da_fc7
I1015 00:07:33.766682 19737 net.cpp:113] Setting up da_fc7
I1015 00:07:34.355010 19737 net.cpp:120] Top shape: 1 4096 (4096)
I1015 00:07:34.355051 19737 layer_factory.hpp:74] Creating layer da_relu7
I1015 00:07:34.355067 19737 net.cpp:84] Creating Layer da_relu7
I1015 00:07:34.355077 19737 net.cpp:380] da_relu7 <- da_fc7
I1015 00:07:34.355088 19737 net.cpp:327] da_relu7 -> da_fc7 (in-place)
I1015 00:07:34.355099 19737 net.cpp:113] Setting up da_relu7
I1015 00:07:34.355253 19737 net.cpp:120] Top shape: 1 4096 (4096)
I1015 00:07:34.355267 19737 layer_factory.hpp:74] Creating layer da_drop7
I1015 00:07:34.355279 19737 net.cpp:84] Creating Layer da_drop7
I1015 00:07:34.355286 19737 net.cpp:380] da_drop7 <- da_fc7
I1015 00:07:34.355294 19737 net.cpp:327] da_drop7 -> da_fc7 (in-place)
I1015 00:07:34.355304 19737 net.cpp:113] Setting up da_drop7
I1015 00:07:34.355314 19737 net.cpp:120] Top shape: 1 4096 (4096)
I1015 00:07:34.355324 19737 layer_factory.hpp:74] Creating layer da_fc7_da_drop7_0_split
I1015 00:07:34.355334 19737 net.cpp:84] Creating Layer da_fc7_da_drop7_0_split
I1015 00:07:34.355340 19737 net.cpp:380] da_fc7_da_drop7_0_split <- da_fc7
I1015 00:07:34.355348 19737 net.cpp:338] da_fc7_da_drop7_0_split -> da_fc7_da_drop7_0_split_0
I1015 00:07:34.355360 19737 net.cpp:338] da_fc7_da_drop7_0_split -> da_fc7_da_drop7_0_split_1
I1015 00:07:34.355376 19737 net.cpp:113] Setting up da_fc7_da_drop7_0_split
I1015 00:07:34.355386 19737 net.cpp:120] Top shape: 1 4096 (4096)
I1015 00:07:34.355394 19737 net.cpp:120] Top shape: 1 4096 (4096)
I1015 00:07:34.355401 19737 layer_factory.hpp:74] Creating layer cls_score
I1015 00:07:34.355415 19737 net.cpp:84] Creating Layer cls_score
I1015 00:07:34.355424 19737 net.cpp:380] cls_score <- fc7_drop7_0_split_0
I1015 00:07:34.355437 19737 net.cpp:338] cls_score -> cls_score_0
I1015 00:07:34.355448 19737 net.cpp:113] Setting up cls_score
I1015 00:07:34.358413 19737 net.cpp:120] Top shape: 1 20 (20)
I1015 00:07:34.358430 19737 layer_factory.hpp:74] Creating layer da_cls_score
I1015 00:07:34.358441 19737 net.cpp:84] Creating Layer da_cls_score
I1015 00:07:34.358448 19737 net.cpp:380] da_cls_score <- da_fc7_da_drop7_0_split_0
I1015 00:07:34.358461 19737 net.cpp:338] da_cls_score -> cls_score_1
I1015 00:07:34.358474 19737 net.cpp:113] Setting up da_cls_score
I1015 00:07:34.361421 19737 net.cpp:120] Top shape: 1 20 (20)
I1015 00:07:34.361440 19737 layer_factory.hpp:74] Creating layer bbox_pred
I1015 00:07:34.361451 19737 net.cpp:84] Creating Layer bbox_pred
I1015 00:07:34.361462 19737 net.cpp:380] bbox_pred <- fc7_drop7_0_split_1
I1015 00:07:34.361472 19737 net.cpp:338] bbox_pred -> bbox_pred_0
I1015 00:07:34.361482 19737 net.cpp:113] Setting up bbox_pred
I1015 00:07:34.373306 19737 net.cpp:120] Top shape: 1 80 (80)
I1015 00:07:34.373332 19737 layer_factory.hpp:74] Creating layer da_bbox_pred
I1015 00:07:34.373345 19737 net.cpp:84] Creating Layer da_bbox_pred
I1015 00:07:34.373353 19737 net.cpp:380] da_bbox_pred <- da_fc7_da_drop7_0_split_1
I1015 00:07:34.373365 19737 net.cpp:338] da_bbox_pred -> bbox_pred_1
I1015 00:07:34.373378 19737 net.cpp:113] Setting up da_bbox_pred
I1015 00:07:34.385094 19737 net.cpp:120] Top shape: 1 80 (80)
I1015 00:07:34.385113 19737 layer_factory.hpp:74] Creating layer sum
I1015 00:07:34.385130 19737 net.cpp:84] Creating Layer sum
I1015 00:07:34.385139 19737 net.cpp:380] sum <- bbox_pred_0
I1015 00:07:34.385148 19737 net.cpp:380] sum <- bbox_pred_1
I1015 00:07:34.385156 19737 net.cpp:338] sum -> bbox_pred
I1015 00:07:34.385166 19737 net.cpp:113] Setting up sum
I1015 00:07:34.385181 19737 net.cpp:120] Top shape: 1 80 (80)
I1015 00:07:34.385190 19737 layer_factory.hpp:74] Creating layer sum
I1015 00:07:34.385198 19737 net.cpp:84] Creating Layer sum
I1015 00:07:34.385205 19737 net.cpp:380] sum <- cls_score_0
I1015 00:07:34.385212 19737 net.cpp:380] sum <- cls_score_1
I1015 00:07:34.385224 19737 net.cpp:338] sum -> cls_score
I1015 00:07:34.385234 19737 net.cpp:113] Setting up sum
I1015 00:07:34.385247 19737 net.cpp:120] Top shape: 1 20 (20)
I1015 00:07:34.385253 19737 layer_factory.hpp:74] Creating layer cls_prob
I1015 00:07:34.385262 19737 net.cpp:84] Creating Layer cls_prob
I1015 00:07:34.385269 19737 net.cpp:380] cls_prob <- cls_score
I1015 00:07:34.385277 19737 net.cpp:338] cls_prob -> cls_prob
I1015 00:07:34.385287 19737 net.cpp:113] Setting up cls_prob
I1015 00:07:34.385368 19737 net.cpp:120] Top shape: 1 20 (20)
I1015 00:07:34.385381 19737 net.cpp:169] cls_prob does not need backward computation.
I1015 00:07:34.385388 19737 net.cpp:169] sum does not need backward computation.
I1015 00:07:34.385393 19737 net.cpp:169] sum does not need backward computation.
I1015 00:07:34.385399 19737 net.cpp:169] da_bbox_pred does not need backward computation.
I1015 00:07:34.385406 19737 net.cpp:169] bbox_pred does not need backward computation.
…
