…
           'FG_FRACTION': 0.25,
           'FG_THRESH': 0.5,
           'IMS_PER_BATCH': 2,
           'MAX_SIZE': 2000,
           'SCALES': [600],
           'SNAPSHOT_INFIX': '',
           'SNAPSHOT_ITERS': 10000,
           'USE_FLIPPED': True,
           'USE_PREFETCH': False}}
WARNING: Logging before InitGoogleLogging() is written to STDERR
I1015 00:35:44.412088 20472 net.cpp:42] Initializing net from parameters: 
name: "CaffeNet"
input: "data"
input: "rois"
state {
  phase: TEST
}
input_shape {
  dim: 1
  dim: 3
  dim: 227
  dim: 227
}
input_shape {
  dim: 1
  dim: 5
}
layer {
  name: "conv1_1"
  type: "Convolution"
  bottom: "data"
  top: "conv1_1"
  param {
    lr_mult: 1
    decay_mult: 1
  }
  param {
    lr_mult: 2
    decay_mult: 0
  }
  convolution_param {
    num_output: 64
    pad: 1
    kernel_size: 3
  }
}
layer {
  name: "relu1_1"
  type: "ReLU"
  bottom: "conv1_1"
  top: "conv1_1"
}
layer {
  name: "conv1_2"
  type: "Convolution"
  bottom: "conv1_1"
  top: "conv1_2"
  param {
    lr_mult: 1
    decay_mult: 1
  }
  param {
    lr_mult: 2
    decay_mult: 0
  }
  convolution_param {
    num_output: 64
    pad: 1
    kernel_size: 3
  }
}
layer {
  name: "relu1_2"
  type: "ReLU"
  bottom: "conv1_2"
  top: "conv1_2"
}
layer {
  name: "pool1"
  type: "Pooling"
  bottom: "conv1_2"
  top: "pool1"
  pooling_param {
    pool: MAX
    kernel_size: 2
    stride: 2
  }
}
layer {
  name: "conv2_1"
  type: "Convolution"
  bottom: "pool1"
  top: "conv2_1"
  param {
    lr_mult: 1
    decay_mult: 1
  }
  param {
    lr_mult: 2
    decay_mult: 0
  }
  convolution_param {
    num_output: 128
    pad: 1
    kernel_size: 3
  }
}
layer {
  name: "relu2_1"
  type: "ReLU"
  bottom: "conv2_1"
  top: "conv2_1"
}
layer {
  name: "conv2_2"
  type: "Convolution"
  bottom: "conv2_1"
  top: "conv2_2"
  param {
    lr_mult: 1
    decay_mult: 1
  }
  param {
    lr_mult: 2
    decay_mult: 0
  }
  convolution_param {
    num_output: 128
    pad: 1
    kernel_size: 3
  }
}
layer {
  name: "relu2_2"
  type: "ReLU"
  bottom: "conv2_2"
  top: "conv2_2"
}
layer {
  name: "pool2"
  type: "Pooling"
  bottom: "conv2_2"
  top: "pool2"
  pooling_param {
    pool: MAX
    kernel_size: 2
    stride: 2
  }
}
layer {
  name: "conv3_1"
  type: "Convolution"
  bottom: "pool2"
  top: "conv3_1"
  param {
    lr_mult: 1
    decay_mult: 1
  }
  param {
    lr_mult: 2
    decay_mult: 0
  }
  convolution_param {
    num_output: 256
    pad: 1
    kernel_size: 3
  }
}
layer {
  name: "relu3_1"
  type: "ReLU"
  bottom: "conv3_1"
  top: "conv3_1"
}
layer {
  name: "conv3_2"
  type: "Convolution"
  bottom: "conv3_1"
  top: "conv3_2"
  param {
    lr_mult: 1
    decay_mult: 1
  }
  param {
    lr_mult: 2
    decay_mult: 0
  }
  convolution_param {
    num_output: 256
    pad: 1
    kernel_size: 3
  }
}
layer {
  name: "relu3_2"
  type: "ReLU"
  bottom: "conv3_2"
  top: "conv3_2"
}
layer {
  name: "conv3_3"
  type: "Convolution"
  bottom: "conv3_2"
  top: "conv3_3"
  param {
    lr_mult: 1
    decay_mult: 1
  }
  param {
    lr_mult: 2
    decay_mult: 0
  }
  convolution_param {
    num_output: 256
    pad: 1
    kernel_size: 3
  }
}
layer {
  name: "relu3_3"
  type: "ReLU"
  bottom: "conv3_3"
  top: "conv3_3"
}
layer {
  name: "pool3"
  type: "Pooling"
  bottom: "conv3_3"
  top: "pool3"
  pooling_param {
    pool: MAX
    kernel_size: 2
    stride: 2
  }
}
layer {
  name: "conv4_1"
  type: "Convolution"
  bottom: "pool3"
  top: "conv4_1"
  param {
    lr_mult: 1
    decay_mult: 1
  }
  param {
    lr_mult: 2
    decay_mult: 0
  }
  convolution_param {
    num_output: 512
    pad: 1
    kernel_size: 3
  }
}
layer {
  name: "relu4_1"
  type: "ReLU"
  bottom: "conv4_1"
  top: "conv4_1"
}
layer {
  name: "conv4_2"
  type: "Convolution"
  bottom: "conv4_1"
  top: "conv4_2"
  param {
    lr_mult: 1
    decay_mult: 1
  }
  param {
    lr_mult: 2
    decay_mult: 0
  }
  convolution_param {
    num_output: 512
    pad: 1
    kernel_size: 3
  }
}
layer {
  name: "relu4_2"
  type: "ReLU"
  bottom: "conv4_2"
  top: "conv4_2"
}
layer {
  name: "conv4_3"
  type: "Convolution"
  bottom: "conv4_2"
  top: "conv4_3"
  param {
    lr_mult: 1
    decay_mult: 1
  }
  param {
    lr_mult: 2
    decay_mult: 0
  }
  convolution_param {
    num_output: 512
    pad: 1
    kernel_size: 3
  }
}
layer {
  name: "relu4_3"
  type: "ReLU"
  bottom: "conv4_3"
  top: "conv4_3"
}
layer {
  name: "pool4"
  type: "Pooling"
  bottom: "conv4_3"
  top: "pool4"
  pooling_param {
    pool: MAX
    kernel_size: 2
    stride: 2
  }
}
layer {
  name: "conv5_1"
  type: "Convolution"
  bottom: "pool4"
  top: "conv5_1"
  param {
    lr_mult: 1
    decay_mult: 1
  }
  param {
    lr_mult: 2
    decay_mult: 0
  }
  convolution_param {
    num_output: 512
    pad: 1
    kernel_size: 3
  }
}
layer {
  name: "relu5_1"
  type: "ReLU"
  bottom: "conv5_1"
  top: "conv5_1"
}
layer {
  name: "conv5_2"
  type: "Convolution"
  bottom: "conv5_1"
  top: "conv5_2"
  param {
    lr_mult: 1
    decay_mult: 1
  }
  param {
    lr_mult: 2
    decay_mult: 0
  }
  convolution_param {
    num_output: 512
    pad: 1
    kernel_size: 3
  }
}
layer {
  name: "relu5_2"
  type: "ReLU"
  bottom: "conv5_2"
  top: "conv5_2"
}
layer {
  name: "conv5_3"
  type: "Convolution"
  bottom: "conv5_2"
  top: "conv5_3"
  param {
    lr_mult: 1
    decay_mult: 1
  }
  param {
    lr_mult: 2
    decay_mult: 0
  }
  convolution_param {
    num_output: 512
    pad: 1
    kernel_size: 3
  }
}
layer {
  name: "relu5_3"
  type: "ReLU"
  bottom: "conv5_3"
  top: "conv5_3"
}
layer {
  name: "roi_pool5"
  type: "ROIPooling"
  bottom: "conv5_3"
  bottom: "rois"
  top: "pool5"
  roi_pooling_param {
    pooled_h: 7
    pooled_w: 7
    spatial_scale: 0.0625
  }
}
layer {
  name: "fc6"
  type: "InnerProduct"
  bottom: "pool5"
  top: "fc6"
  param {
    lr_mult: 1
    decay_mult: 1
  }
  param {
    lr_mult: 2
    decay_mult: 0
  }
  inner_product_param {
    num_output: 4096
  }
}
layer {
  name: "relu6"
  type: "ReLU"
  bottom: "fc6"
  top: "fc6"
}
layer {
  name: "drop6"
  type: "Dropout"
  bottom: "fc6"
  top: "fc6"
  dropout_param {
    dropout_ratio: 0.5
  }
}
layer {
  name: "fc7"
  type: "InnerProduct"
  bottom: "fc6"
  top: "fc7"
  param {
    lr_mult: 1
    decay_mult: 1
  }
  param {
    lr_mult: 2
    decay_mult: 0
  }
  inner_product_param {
    num_output: 4096
  }
}
layer {
  name: "relu7"
  type: "ReLU"
  bottom: "fc7"
  top: "fc7"
}
layer {
  name: "drop7"
  type: "Dropout"
  bottom: "fc7"
  top: "fc7"
  dropout_param {
    dropout_ratio: 0.5
  }
}
layer {
  name: "cls_score"
  type: "InnerProduct"
  bottom: "fc7"
  top: "cls_score_0"
  param {
    lr_mult: 1
    decay_mult: 1
  }
  param {
    lr_mult: 2
    decay_mult: 0
  }
  inner_product_param {
    num_output: 20
    weight_filler {
      type: "gaussian"
      std: 0.01
    }
    bias_filler {
      type: "constant"
      value: 0
    }
  }
}
layer {
  name: "bbox_pred"
  type: "InnerProduct"
  bottom: "fc7"
  top: "bbox_pred_0"
  param {
    lr_mult: 1
    decay_mult: 1
  }
  param {
    lr_mult: 2
    decay_mult: 0
  }
  inner_product_param {
    num_output: 80
    weight_filler {
      type: "gaussian"
      std: 0.001
    }
    bias_filler {
      type: "constant"
      value: 0
    }
  }
}
layer {
  name: "sum"
  type: "Eltwise"
  bottom: "bbox_pred_0"
  bottom: "bbox_pred_0"
  top: "bbox_pred"
  eltwise_param {
    operation: SUM
    coeff: 0.5
    coeff: 0.5
  }
}
layer {
  name: "sum"
  type: "Eltwise"
  bottom: "cls_score_0"
  bottom: "cls_score_0"
  top: "cls_score"
  eltwise_param {
    operation: SUM
    coeff: 0.5
    coeff: 0.5
  }
}
layer {
  name: "cls_prob"
  type: "Softmax"
  bottom: "cls_score"
  top: "cls_prob"
}
I1015 00:35:44.412472 20472 net.cpp:340] Input 0 -> data
I1015 00:35:44.412523 20472 net.cpp:340] Input 1 -> rois
I1015 00:35:44.412564 20472 layer_factory.hpp:74] Creating layer conv1_1
I1015 00:35:44.412592 20472 net.cpp:84] Creating Layer conv1_1
I1015 00:35:44.412607 20472 net.cpp:380] conv1_1 <- data
I1015 00:35:44.412627 20472 net.cpp:338] conv1_1 -> conv1_1
I1015 00:35:44.412652 20472 net.cpp:113] Setting up conv1_1
I1015 00:35:44.474083 20472 net.cpp:120] Top shape: 1 64 227 227 (3297856)
I1015 00:35:44.474128 20472 layer_factory.hpp:74] Creating layer relu1_1
I1015 00:35:44.474145 20472 net.cpp:84] Creating Layer relu1_1
I1015 00:35:44.474153 20472 net.cpp:380] relu1_1 <- conv1_1
I1015 00:35:44.474162 20472 net.cpp:327] relu1_1 -> conv1_1 (in-place)
I1015 00:35:44.474174 20472 net.cpp:113] Setting up relu1_1
I1015 00:35:44.474236 20472 net.cpp:120] Top shape: 1 64 227 227 (3297856)
I1015 00:35:44.474248 20472 layer_factory.hpp:74] Creating layer conv1_2
I1015 00:35:44.474261 20472 net.cpp:84] Creating Layer conv1_2
I1015 00:35:44.474267 20472 net.cpp:380] conv1_2 <- conv1_1
I1015 00:35:44.474277 20472 net.cpp:338] conv1_2 -> conv1_2
I1015 00:35:44.474287 20472 net.cpp:113] Setting up conv1_2
I1015 00:35:44.474773 20472 net.cpp:120] Top shape: 1 64 227 227 (3297856)
I1015 00:35:44.474795 20472 layer_factory.hpp:74] Creating layer relu1_2
I1015 00:35:44.474812 20472 net.cpp:84] Creating Layer relu1_2
I1015 00:35:44.474819 20472 net.cpp:380] relu1_2 <- conv1_2
I1015 00:35:44.474828 20472 net.cpp:327] relu1_2 -> conv1_2 (in-place)
I1015 00:35:44.474838 20472 net.cpp:113] Setting up relu1_2
I1015 00:35:44.474905 20472 net.cpp:120] Top shape: 1 64 227 227 (3297856)
I1015 00:35:44.474915 20472 layer_factory.hpp:74] Creating layer pool1
I1015 00:35:44.474930 20472 net.cpp:84] Creating Layer pool1
I1015 00:35:44.474938 20472 net.cpp:380] pool1 <- conv1_2
I1015 00:35:44.474946 20472 net.cpp:338] pool1 -> pool1
I1015 00:35:44.474957 20472 net.cpp:113] Setting up pool1
I1015 00:35:44.475031 20472 net.cpp:120] Top shape: 1 64 114 114 (831744)
I1015 00:35:44.475044 20472 layer_factory.hpp:74] Creating layer conv2_1
I1015 00:35:44.475052 20472 net.cpp:84] Creating Layer conv2_1
I1015 00:35:44.475059 20472 net.cpp:380] conv2_1 <- pool1
I1015 00:35:44.475069 20472 net.cpp:338] conv2_1 -> conv2_1
I1015 00:35:44.475077 20472 net.cpp:113] Setting up conv2_1
I1015 00:35:44.475605 20472 net.cpp:120] Top shape: 1 128 114 114 (1663488)
I1015 00:35:44.475625 20472 layer_factory.hpp:74] Creating layer relu2_1
I1015 00:35:44.475636 20472 net.cpp:84] Creating Layer relu2_1
I1015 00:35:44.475643 20472 net.cpp:380] relu2_1 <- conv2_1
I1015 00:35:44.475652 20472 net.cpp:327] relu2_1 -> conv2_1 (in-place)
I1015 00:35:44.475661 20472 net.cpp:113] Setting up relu2_1
I1015 00:35:44.475868 20472 net.cpp:120] Top shape: 1 128 114 114 (1663488)
I1015 00:35:44.475883 20472 layer_factory.hpp:74] Creating layer conv2_2
I1015 00:35:44.475896 20472 net.cpp:84] Creating Layer conv2_2
I1015 00:35:44.475905 20472 net.cpp:380] conv2_2 <- conv2_1
I1015 00:35:44.475915 20472 net.cpp:338] conv2_2 -> conv2_2
I1015 00:35:44.475929 20472 net.cpp:113] Setting up conv2_2
I1015 00:35:44.476626 20472 net.cpp:120] Top shape: 1 128 114 114 (1663488)
I1015 00:35:44.476645 20472 layer_factory.hpp:74] Creating layer relu2_2
I1015 00:35:44.476656 20472 net.cpp:84] Creating Layer relu2_2
I1015 00:35:44.476665 20472 net.cpp:380] relu2_2 <- conv2_2
I1015 00:35:44.476676 20472 net.cpp:327] relu2_2 -> conv2_2 (in-place)
I1015 00:35:44.476686 20472 net.cpp:113] Setting up relu2_2
I1015 00:35:44.476753 20472 net.cpp:120] Top shape: 1 128 114 114 (1663488)
I1015 00:35:44.476765 20472 layer_factory.hpp:74] Creating layer pool2
I1015 00:35:44.476776 20472 net.cpp:84] Creating Layer pool2
I1015 00:35:44.476783 20472 net.cpp:380] pool2 <- conv2_2
I1015 00:35:44.476793 20472 net.cpp:338] pool2 -> pool2
I1015 00:35:44.476802 20472 net.cpp:113] Setting up pool2
I1015 00:35:44.476871 20472 net.cpp:120] Top shape: 1 128 57 57 (415872)
I1015 00:35:44.476882 20472 layer_factory.hpp:74] Creating layer conv3_1
I1015 00:35:44.476892 20472 net.cpp:84] Creating Layer conv3_1
I1015 00:35:44.476898 20472 net.cpp:380] conv3_1 <- pool2
I1015 00:35:44.476907 20472 net.cpp:338] conv3_1 -> conv3_1
I1015 00:35:44.476918 20472 net.cpp:113] Setting up conv3_1
I1015 00:35:44.477910 20472 net.cpp:120] Top shape: 1 256 57 57 (831744)
I1015 00:35:44.477933 20472 layer_factory.hpp:74] Creating layer relu3_1
I1015 00:35:44.477944 20472 net.cpp:84] Creating Layer relu3_1
I1015 00:35:44.477952 20472 net.cpp:380] relu3_1 <- conv3_1
I1015 00:35:44.477960 20472 net.cpp:327] relu3_1 -> conv3_1 (in-place)
I1015 00:35:44.477969 20472 net.cpp:113] Setting up relu3_1
I1015 00:35:44.478176 20472 net.cpp:120] Top shape: 1 256 57 57 (831744)
I1015 00:35:44.478191 20472 layer_factory.hpp:74] Creating layer conv3_2
I1015 00:35:44.478201 20472 net.cpp:84] Creating Layer conv3_2
I1015 00:35:44.478209 20472 net.cpp:380] conv3_2 <- conv3_1
I1015 00:35:44.478219 20472 net.cpp:338] conv3_2 -> conv3_2
I1015 00:35:44.478230 20472 net.cpp:113] Setting up conv3_2
I1015 00:35:44.479866 20472 net.cpp:120] Top shape: 1 256 57 57 (831744)
I1015 00:35:44.479888 20472 layer_factory.hpp:74] Creating layer relu3_2
I1015 00:35:44.479900 20472 net.cpp:84] Creating Layer relu3_2
I1015 00:35:44.479908 20472 net.cpp:380] relu3_2 <- conv3_2
I1015 00:35:44.479917 20472 net.cpp:327] relu3_2 -> conv3_2 (in-place)
I1015 00:35:44.479925 20472 net.cpp:113] Setting up relu3_2
I1015 00:35:44.479989 20472 net.cpp:120] Top shape: 1 256 57 57 (831744)
I1015 00:35:44.480000 20472 layer_factory.hpp:74] Creating layer conv3_3
I1015 00:35:44.480012 20472 net.cpp:84] Creating Layer conv3_3
I1015 00:35:44.480020 20472 net.cpp:380] conv3_3 <- conv3_2
I1015 00:35:44.480031 20472 net.cpp:338] conv3_3 -> conv3_3
I1015 00:35:44.480042 20472 net.cpp:113] Setting up conv3_3
I1015 00:35:44.481688 20472 net.cpp:120] Top shape: 1 256 57 57 (831744)
I1015 00:35:44.481708 20472 layer_factory.hpp:74] Creating layer relu3_3
I1015 00:35:44.481717 20472 net.cpp:84] Creating Layer relu3_3
I1015 00:35:44.481724 20472 net.cpp:380] relu3_3 <- conv3_3
I1015 00:35:44.481735 20472 net.cpp:327] relu3_3 -> conv3_3 (in-place)
I1015 00:35:44.481745 20472 net.cpp:113] Setting up relu3_3
I1015 00:35:44.481809 20472 net.cpp:120] Top shape: 1 256 57 57 (831744)
I1015 00:35:44.481822 20472 layer_factory.hpp:74] Creating layer pool3
I1015 00:35:44.481837 20472 net.cpp:84] Creating Layer pool3
I1015 00:35:44.481847 20472 net.cpp:380] pool3 <- conv3_3
I1015 00:35:44.481855 20472 net.cpp:338] pool3 -> pool3
I1015 00:35:44.481864 20472 net.cpp:113] Setting up pool3
I1015 00:35:44.481930 20472 net.cpp:120] Top shape: 1 256 29 29 (215296)
I1015 00:35:44.481943 20472 layer_factory.hpp:74] Creating layer conv4_1
I1015 00:35:44.481955 20472 net.cpp:84] Creating Layer conv4_1
I1015 00:35:44.481961 20472 net.cpp:380] conv4_1 <- pool3
I1015 00:35:44.481969 20472 net.cpp:338] conv4_1 -> conv4_1
I1015 00:35:44.481979 20472 net.cpp:113] Setting up conv4_1
I1015 00:35:44.484606 20472 net.cpp:120] Top shape: 1 512 29 29 (430592)
I1015 00:35:44.484639 20472 layer_factory.hpp:74] Creating layer relu4_1
I1015 00:35:44.484654 20472 net.cpp:84] Creating Layer relu4_1
I1015 00:35:44.484663 20472 net.cpp:380] relu4_1 <- conv4_1
I1015 00:35:44.484673 20472 net.cpp:327] relu4_1 -> conv4_1 (in-place)
I1015 00:35:44.484683 20472 net.cpp:113] Setting up relu4_1
I1015 00:35:44.484892 20472 net.cpp:120] Top shape: 1 512 29 29 (430592)
I1015 00:35:44.484907 20472 layer_factory.hpp:74] Creating layer conv4_2
I1015 00:35:44.484921 20472 net.cpp:84] Creating Layer conv4_2
I1015 00:35:44.484930 20472 net.cpp:380] conv4_2 <- conv4_1
I1015 00:35:44.484940 20472 net.cpp:338] conv4_2 -> conv4_2
I1015 00:35:44.484949 20472 net.cpp:113] Setting up conv4_2
I1015 00:35:44.489141 20472 net.cpp:120] Top shape: 1 512 29 29 (430592)
I1015 00:35:44.489192 20472 layer_factory.hpp:74] Creating layer relu4_2
I1015 00:35:44.489205 20472 net.cpp:84] Creating Layer relu4_2
I1015 00:35:44.489214 20472 net.cpp:380] relu4_2 <- conv4_2
I1015 00:35:44.489224 20472 net.cpp:327] relu4_2 -> conv4_2 (in-place)
I1015 00:35:44.489235 20472 net.cpp:113] Setting up relu4_2
I1015 00:35:44.489300 20472 net.cpp:120] Top shape: 1 512 29 29 (430592)
I1015 00:35:44.489311 20472 layer_factory.hpp:74] Creating layer conv4_3
I1015 00:35:44.489325 20472 net.cpp:84] Creating Layer conv4_3
I1015 00:35:44.489331 20472 net.cpp:380] conv4_3 <- conv4_2
I1015 00:35:44.489341 20472 net.cpp:338] conv4_3 -> conv4_3
I1015 00:35:44.489351 20472 net.cpp:113] Setting up conv4_3
I1015 00:35:44.493916 20472 net.cpp:120] Top shape: 1 512 29 29 (430592)
I1015 00:35:44.493962 20472 layer_factory.hpp:74] Creating layer relu4_3
I1015 00:35:44.493978 20472 net.cpp:84] Creating Layer relu4_3
I1015 00:35:44.493988 20472 net.cpp:380] relu4_3 <- conv4_3
I1015 00:35:44.493999 20472 net.cpp:327] relu4_3 -> conv4_3 (in-place)
I1015 00:35:44.494009 20472 net.cpp:113] Setting up relu4_3
I1015 00:35:44.494074 20472 net.cpp:120] Top shape: 1 512 29 29 (430592)
I1015 00:35:44.494086 20472 layer_factory.hpp:74] Creating layer pool4
I1015 00:35:44.494097 20472 net.cpp:84] Creating Layer pool4
I1015 00:35:44.494103 20472 net.cpp:380] pool4 <- conv4_3
I1015 00:35:44.494115 20472 net.cpp:338] pool4 -> pool4
I1015 00:35:44.494127 20472 net.cpp:113] Setting up pool4
I1015 00:35:44.494199 20472 net.cpp:120] Top shape: 1 512 15 15 (115200)
I1015 00:35:44.494210 20472 layer_factory.hpp:74] Creating layer conv5_1
I1015 00:35:44.494220 20472 net.cpp:84] Creating Layer conv5_1
I1015 00:35:44.494227 20472 net.cpp:380] conv5_1 <- pool4
I1015 00:35:44.494236 20472 net.cpp:338] conv5_1 -> conv5_1
I1015 00:35:44.494249 20472 net.cpp:113] Setting up conv5_1
I1015 00:35:44.498410 20472 net.cpp:120] Top shape: 1 512 15 15 (115200)
I1015 00:35:44.498456 20472 layer_factory.hpp:74] Creating layer relu5_1
I1015 00:35:44.498469 20472 net.cpp:84] Creating Layer relu5_1
I1015 00:35:44.498478 20472 net.cpp:380] relu5_1 <- conv5_1
I1015 00:35:44.498488 20472 net.cpp:327] relu5_1 -> conv5_1 (in-place)
I1015 00:35:44.498500 20472 net.cpp:113] Setting up relu5_1
I1015 00:35:44.498708 20472 net.cpp:120] Top shape: 1 512 15 15 (115200)
I1015 00:35:44.498723 20472 layer_factory.hpp:74] Creating layer conv5_2
I1015 00:35:44.498734 20472 net.cpp:84] Creating Layer conv5_2
I1015 00:35:44.498741 20472 net.cpp:380] conv5_2 <- conv5_1
I1015 00:35:44.498754 20472 net.cpp:338] conv5_2 -> conv5_2
I1015 00:35:44.498765 20472 net.cpp:113] Setting up conv5_2
I1015 00:35:44.503365 20472 net.cpp:120] Top shape: 1 512 15 15 (115200)
I1015 00:35:44.503410 20472 layer_factory.hpp:74] Creating layer relu5_2
I1015 00:35:44.503425 20472 net.cpp:84] Creating Layer relu5_2
I1015 00:35:44.503433 20472 net.cpp:380] relu5_2 <- conv5_2
I1015 00:35:44.503448 20472 net.cpp:327] relu5_2 -> conv5_2 (in-place)
I1015 00:35:44.503458 20472 net.cpp:113] Setting up relu5_2
I1015 00:35:44.503525 20472 net.cpp:120] Top shape: 1 512 15 15 (115200)
I1015 00:35:44.503540 20472 layer_factory.hpp:74] Creating layer conv5_3
I1015 00:35:44.503552 20472 net.cpp:84] Creating Layer conv5_3
I1015 00:35:44.503562 20472 net.cpp:380] conv5_3 <- conv5_2
I1015 00:35:44.503571 20472 net.cpp:338] conv5_3 -> conv5_3
I1015 00:35:44.503582 20472 net.cpp:113] Setting up conv5_3
I1015 00:35:44.507920 20472 net.cpp:120] Top shape: 1 512 15 15 (115200)
I1015 00:35:44.507964 20472 layer_factory.hpp:74] Creating layer relu5_3
I1015 00:35:44.507982 20472 net.cpp:84] Creating Layer relu5_3
I1015 00:35:44.507990 20472 net.cpp:380] relu5_3 <- conv5_3
I1015 00:35:44.508002 20472 net.cpp:327] relu5_3 -> conv5_3 (in-place)
I1015 00:35:44.508013 20472 net.cpp:113] Setting up relu5_3
I1015 00:35:44.508077 20472 net.cpp:120] Top shape: 1 512 15 15 (115200)
I1015 00:35:44.508088 20472 layer_factory.hpp:74] Creating layer roi_pool5
I1015 00:35:44.508122 20472 net.cpp:84] Creating Layer roi_pool5
I1015 00:35:44.508133 20472 net.cpp:380] roi_pool5 <- conv5_3
I1015 00:35:44.508141 20472 net.cpp:380] roi_pool5 <- rois
I1015 00:35:44.508153 20472 net.cpp:338] roi_pool5 -> pool5
I1015 00:35:44.508164 20472 net.cpp:113] Setting up roi_pool5
I1015 00:35:44.508177 20472 roi_pooling_layer.cpp:30] Spatial scale: 0.0625
I1015 00:35:44.508206 20472 net.cpp:120] Top shape: 1 512 7 7 (25088)
I1015 00:35:44.508215 20472 layer_factory.hpp:74] Creating layer fc6
I1015 00:35:44.508226 20472 net.cpp:84] Creating Layer fc6
I1015 00:35:44.508232 20472 net.cpp:380] fc6 <- pool5
I1015 00:35:44.508241 20472 net.cpp:338] fc6 -> fc6
I1015 00:35:44.508251 20472 net.cpp:113] Setting up fc6
I1015 00:35:44.652256 20472 net.cpp:120] Top shape: 1 4096 (4096)
I1015 00:35:44.652295 20472 layer_factory.hpp:74] Creating layer relu6
I1015 00:35:44.652320 20472 net.cpp:84] Creating Layer relu6
I1015 00:35:44.652329 20472 net.cpp:380] relu6 <- fc6
I1015 00:35:44.652339 20472 net.cpp:327] relu6 -> fc6 (in-place)
I1015 00:35:44.652350 20472 net.cpp:113] Setting up relu6
I1015 00:35:44.652447 20472 net.cpp:120] Top shape: 1 4096 (4096)
I1015 00:35:44.652458 20472 layer_factory.hpp:74] Creating layer drop6
I1015 00:35:44.652473 20472 net.cpp:84] Creating Layer drop6
I1015 00:35:44.652484 20472 net.cpp:380] drop6 <- fc6
I1015 00:35:44.652493 20472 net.cpp:327] drop6 -> fc6 (in-place)
I1015 00:35:44.652503 20472 net.cpp:113] Setting up drop6
I1015 00:35:44.652513 20472 net.cpp:120] Top shape: 1 4096 (4096)
I1015 00:35:44.652518 20472 layer_factory.hpp:74] Creating layer fc7
I1015 00:35:44.652532 20472 net.cpp:84] Creating Layer fc7
I1015 00:35:44.652541 20472 net.cpp:380] fc7 <- fc6
I1015 00:35:44.652550 20472 net.cpp:338] fc7 -> fc7
I1015 00:35:44.652561 20472 net.cpp:113] Setting up fc7
I1015 00:35:44.677601 20472 net.cpp:120] Top shape: 1 4096 (4096)
I1015 00:35:44.677646 20472 layer_factory.hpp:74] Creating layer relu7
I1015 00:35:44.677661 20472 net.cpp:84] Creating Layer relu7
I1015 00:35:44.677670 20472 net.cpp:380] relu7 <- fc7
I1015 00:35:44.677680 20472 net.cpp:327] relu7 -> fc7 (in-place)
I1015 00:35:44.677690 20472 net.cpp:113] Setting up relu7
I1015 00:35:44.677991 20472 net.cpp:120] Top shape: 1 4096 (4096)
I1015 00:35:44.678006 20472 layer_factory.hpp:74] Creating layer drop7
I1015 00:35:44.678017 20472 net.cpp:84] Creating Layer drop7
I1015 00:35:44.678023 20472 net.cpp:380] drop7 <- fc7
I1015 00:35:44.678036 20472 net.cpp:327] drop7 -> fc7 (in-place)
I1015 00:35:44.678050 20472 net.cpp:113] Setting up drop7
I1015 00:35:44.678061 20472 net.cpp:120] Top shape: 1 4096 (4096)
I1015 00:35:44.678069 20472 layer_factory.hpp:74] Creating layer fc7_drop7_0_split
I1015 00:35:44.678084 20472 net.cpp:84] Creating Layer fc7_drop7_0_split
I1015 00:35:44.678092 20472 net.cpp:380] fc7_drop7_0_split <- fc7
I1015 00:35:44.678102 20472 net.cpp:338] fc7_drop7_0_split -> fc7_drop7_0_split_0
I1015 00:35:44.678112 20472 net.cpp:338] fc7_drop7_0_split -> fc7_drop7_0_split_1
I1015 00:35:44.678122 20472 net.cpp:113] Setting up fc7_drop7_0_split
I1015 00:35:44.678138 20472 net.cpp:120] Top shape: 1 4096 (4096)
I1015 00:35:44.678148 20472 net.cpp:120] Top shape: 1 4096 (4096)
I1015 00:35:44.678154 20472 layer_factory.hpp:74] Creating layer cls_score
I1015 00:35:44.678165 20472 net.cpp:84] Creating Layer cls_score
I1015 00:35:44.678172 20472 net.cpp:380] cls_score <- fc7_drop7_0_split_0
I1015 00:35:44.678181 20472 net.cpp:338] cls_score -> cls_score_0
I1015 00:35:44.678191 20472 net.cpp:113] Setting up cls_score
I1015 00:35:44.681519 20472 net.cpp:120] Top shape: 1 20 (20)
I1015 00:35:44.681536 20472 layer_factory.hpp:74] Creating layer cls_score_0_cls_score_0_split
I1015 00:35:44.681551 20472 net.cpp:84] Creating Layer cls_score_0_cls_score_0_split
I1015 00:35:44.681560 20472 net.cpp:380] cls_score_0_cls_score_0_split <- cls_score_0
I1015 00:35:44.681569 20472 net.cpp:338] cls_score_0_cls_score_0_split -> cls_score_0_cls_score_0_split_0
I1015 00:35:44.681581 20472 net.cpp:338] cls_score_0_cls_score_0_split -> cls_score_0_cls_score_0_split_1
I1015 00:35:44.681589 20472 net.cpp:113] Setting up cls_score_0_cls_score_0_split
I1015 00:35:44.681599 20472 net.cpp:120] Top shape: 1 20 (20)
I1015 00:35:44.681607 20472 net.cpp:120] Top shape: 1 20 (20)
I1015 00:35:44.681613 20472 layer_factory.hpp:74] Creating layer bbox_pred
I1015 00:35:44.681625 20472 net.cpp:84] Creating Layer bbox_pred
I1015 00:35:44.681632 20472 net.cpp:380] bbox_pred <- fc7_drop7_0_split_1
I1015 00:35:44.681641 20472 net.cpp:338] bbox_pred -> bbox_pred_0
I1015 00:35:44.681650 20472 net.cpp:113] Setting up bbox_pred
I1015 00:35:44.693373 20472 net.cpp:120] Top shape: 1 80 (80)
I1015 00:35:44.693400 20472 layer_factory.hpp:74] Creating layer bbox_pred_0_bbox_pred_0_split
I1015 00:35:44.693413 20472 net.cpp:84] Creating Layer bbox_pred_0_bbox_pred_0_split
I1015 00:35:44.693419 20472 net.cpp:380] bbox_pred_0_bbox_pred_0_split <- bbox_pred_0
I1015 00:35:44.693428 20472 net.cpp:338] bbox_pred_0_bbox_pred_0_split -> bbox_pred_0_bbox_pred_0_split_0
I1015 00:35:44.693439 20472 net.cpp:338] bbox_pred_0_bbox_pred_0_split -> bbox_pred_0_bbox_pred_0_split_1
I1015 00:35:44.693449 20472 net.cpp:113] Setting up bbox_pred_0_bbox_pred_0_split
I1015 00:35:44.693460 20472 net.cpp:120] Top shape: 1 80 (80)
I1015 00:35:44.693469 20472 net.cpp:120] Top shape: 1 80 (80)
I1015 00:35:44.693475 20472 layer_factory.hpp:74] Creating layer sum
I1015 00:35:44.693487 20472 net.cpp:84] Creating Layer sum
I1015 00:35:44.693497 20472 net.cpp:380] sum <- bbox_pred_0_bbox_pred_0_split_0
I1015 00:35:44.693507 20472 net.cpp:380] sum <- bbox_pred_0_bbox_pred_0_split_1
I1015 00:35:44.693517 20472 net.cpp:338] sum -> bbox_pred
I1015 00:35:44.693526 20472 net.cpp:113] Setting up sum
I1015 00:35:44.693542 20472 net.cpp:120] Top shape: 1 80 (80)
I1015 00:35:44.693548 20472 layer_factory.hpp:74] Creating layer sum
I1015 00:35:44.693557 20472 net.cpp:84] Creating Layer sum
I1015 00:35:44.693563 20472 net.cpp:380] sum <- cls_score_0_cls_score_0_split_0
I1015 00:35:44.693572 20472 net.cpp:380] sum <- cls_score_0_cls_score_0_split_1
I1015 00:35:44.693583 20472 net.cpp:338] sum -> cls_score
I1015 00:35:44.693591 20472 net.cpp:113] Setting up sum
I1015 00:35:44.693600 20472 net.cpp:120] Top shape: 1 20 (20)
I1015 00:35:44.693608 20472 layer_factory.hpp:74] Creating layer cls_prob
I1015 00:35:44.693616 20472 net.cpp:84] Creating Layer cls_prob
I1015 00:35:44.693622 20472 net.cpp:380] cls_prob <- cls_score
I1015 00:35:44.693630 20472 net.cpp:338] cls_prob -> cls_prob
I1015 00:35:44.693645 20472 net.cpp:113] Setting up cls_prob
I1015 00:35:44.693727 20472 net.cpp:120] Top shape: 1 20 (20)
I1015 00:35:44.693738 20472 net.cpp:169] cls_prob does not need backward computation.
I1015 00:35:44.693745 20472 net.cpp:169] sum does not need backward computation.
I1015 00:35:44.693750 20472 net.cpp:169] sum does not need backward computation.
I1015 00:35:44.693756 20472 net.cpp:169] bbox_pred_0_bbox_pred_0_split does not need backward computation.
I1015 00:35:44.693763 20472 net.cpp:169] bbox_pred does not need backward computation.
…
